models/tflite_quant_model.tflite (tflite, 61848 bytes, 12 tensors)

arith.constant f4 [256]
-0.016465498 -0.036916256 0.006848229 -0.05489328 -0.0013338262 -0.023941163 -0.01974043 -0.009503774
0.0109332455 -0.010547193 0.006932314 0.012548815 0.02628538 -0.028284334 -0.0043104272 -0.0020400186
0.014298642 0.040109765 -0.049987394 -0.02428965 0.026115084 0.010004496 0.03942105 -0.015639123
0.01574506 0.016095357 -0.019162774 0.046159152 0.040830076 -0.011041957 0.0012173979 -0.0012415075
0.011997761 -0.023461916 -0.01311444 -0.067994654 -0.026341666 0.031872615 0.005408511 -0.04550411
-0.053411003 -0.0004864079 -0.019919159 -0.014950739 0.00091678125 0.0017556616 -0.011003352 0.013988535
-0.043960024 0.003155557 -0.049320053 0.011586202 0.048990674 0.052297074 0.0129813105 -0.007869719
-0.044221494 -0.11037982 -0.016302984 0.007242646 -0.013608999 -0.07315396 -0.045510177 0.0
0.034540325 -0.026402982 -0.061931577 0.03239557 0.011755126 -0.015522406 -0.030359106 -0.0012509231
-0.036912642 -0.033301454 0.0055852165 -0.040348474 0.0 -0.007495266 -0.0038425957 -0.036434088
-0.010723803 -0.048760407 -0.081782915 -0.08861219 0.033824883 -0.028308718 -0.074558094 0.0
-0.044749748 0.009871431 -0.039938826 -0.05687139 -0.039942965 -0.019500315 -0.009729378 -0.011843081
-0.011830517 -0.0034928974 -0.05093132 -0.04131889 -0.019618317 0.044036888 0.0049919607 0.0013148884
-0.089299895 -0.04595056 0.03010956 -0.05682561 -0.01810999 -0.02959121 0.036296766 0.004308244
-0.009368035 -0.119479716 -0.042176533 -0.012860422 -0.018148378 -0.049275093 0.0014349208 -0.06883328
-0.011161665 -0.012766465 -0.08103857 0.012032608 0.11220779 -0.0013584095 0.035781346 -0.015943786
-0.002568334 -0.07611491 -0.013475296 -0.020583319 -0.045022935 0.0017816634 0.010164764 -0.049584936
0.008998755 -0.0032197956 0.031916432 -0.04769799 0.022755885 0.026942883 -0.067864925 -0.03837508
-0.057056952 -0.0032239957 0.005382227 -0.005767096 0.0496324 -0.009902233 -0.043699544 0.058208894
-0.020521268 0.021076856 0.015980944 0.009493982 0.009091506 0.009613045 -0.057059456 -0.031085774
0.046409003 0.009562176 -0.012975406 -0.024951108 0.041886333 -0.014364555 -0.008526299 0.0012692484
0.03046376 0.07860967 0.0065725967 -0.013833642 -0.0110732885 -0.058404297 -0.003394786 -0.03717333
-0.012293607 -0.01777903 0.045645967 0.0014074494 -0.07186776 -0.038190987 -0.035419907 0.0244565
-0.068700515 -0.05998197 -0.048780594 0.017881319 -0.0319898 0.052291814 -0.06633462 0.073205255
-0.0068628606 -0.01425096 -0.027155383 0.042214878 0.054737795 0.056627024 -0.003469198 -0.045929126
0.0 0.008811305 0.062429465 -0.0113983 -0.04380343 0.0051708324 0.028968738 -0.052749615
-0.07290174 -0.07107695 -0.030438213 0.01410451 -0.060041055 -0.019331375 -0.0753281 0.0
-0.010541264 -0.057368785 0.011144813 -0.055248152 -0.053950947 -0.052406557 -0.012056055 -0.015473707
-0.038544174 -0.013309223 -0.015617067 0.03937332 -0.08404318 -0.018561931 0.005410134 -0.054527804
9.985226e-05 -0.025566483 -0.070018195 0.04930896 -0.009860752 -0.07401618 -0.01316092 -0.005945269
-0.060904257 -0.034678157 0.07397497 -0.02091354 0.00087046064 -0.013501008 -0.011196736 -0.005231411
-0.029385976 -0.047274373 0.026238646 -0.023615982 0.053981427 -0.08562395 0.022634985 -0.0128522925
00000000: a7e2 86bc 8035 17bd 1c67 e03b c7d7 60bd
00000010: c8d3 aeba 4220 c4bc afb6 a1bc b8b5 1bbc
00000020: 5b21 333c 22ce 2cbc 7728 e33b 8c99 4d3c
00000030: 7054 d73c 8cb4 e7bc 7c3e 8dbb d5b1 05bb
00000040: da44 6a3c 234a 243d 95bf 4cbd 17fb c6bc
00000050: 4def d53c e6e9 233c f877 213d 9e1d 80bc
00000060: c9fb 803c 69da 833c 40fb 9cbc 6111 3d3d
00000070: 703d 273d 53e9 34bc 1891 9f3a 14ba a2ba
00000080: 4292 443c 3433 c0bc f3dd 56bc c840 8bbd
00000090: 7aca d7bc dc8c 023d e139 b13b 8562 3abd
000000a0: 7fc5 5abd 9004 ffb9 812d a3bc f2f3 74bc
000000b0: 2654 703a 3a1e e63a 6747 34bc 2b30 653c
000000c0: 6d0f 34bd 76cd 4e3b d303 4abd 0ed4 3d3c
000000d0: 72aa 483d 7535 563d 90af 543c feef 00bc
000000e0: 9921 35bd d10e e2bd d68d 85bc b853 ed3b
000000f0: 47f8 5ebc bed1 95bd e168 3abd 0000 0000
00000100: 287a 0d3d 114b d8bc f7ab 7dbd 38b1 043d
00000110: 9298 403c b151 7ebc a9b3 f8bc 04f6 a3ba
00000120: b631 17bd 1b67 08bd 3104 b73b 7144 25bd
00000130: 0000 0000 d99a f5bb 0fd4 7bbb e93b 15bd
00000140: e4b2 2fbc feb8 47bd cd7d a7bd 4f7a b5bd
00000150: f68b 0a3d afe7 e7bc eab1 98bd 0000 0000
00000160: 834b 37bd c8bb 213c e596 23bd faf1 68bd
00000170: 3c9b 23bd 20bf 9fbc f867 1fbc 7b09 42bc
00000180: c9d4 41bc 18e9 64bb 5c9d 50bd ff3d 29bd
00000190: 98b6 a0bc 0660 343d 9a93 a33b 5558 ac3a
000001a0: dde2 b6bd a836 3cbd 53a8 f63c f9c1 68bd
000001b0: 675b 94bc 4469 f2bc ebab 143d 2c2c 8d3b
000001c0: 637c 19bc c8b1 f4bd 4dc1 2cbd 85b4 52bc
000001d0: e8ab 94bc aed4 49bd f413 bc3a 76f8 8cbd
000001e0: 6bdf 36bc 6f2a 51bc 8df7 a5bd 6a24 453c
000001f0: 33cd e53d a90c b2ba 768f 123d 8b9c 82bc
00000200: 7f51 28bb 22e2 9bbd 7dc7 5cbc 599e a8bc
00000210: f869 38bd b486 e93a 1c8a 263c 9319 4bbd
00000220: 846f 133c 3503 53bb ceba 023d f85e 43bd
00000230: 8d6a ba3c 52b7 dc3c c4fc 8abd 302f 1dbd
00000240: 8db4 69bd ac49 53bb 645d b03b e8f9 bcbb
00000250: 584b 4b3d fa3c 22bc 4bfe 32bd 736c 6e3d
00000260: 381c a8bc 5fa9 ac3c 78ea 823c a68c 1b3c
00000270: 8af4 143c 0880 1d3c 2db7 69bd 98a7 febc
00000280: 5e17 3e3d acaa 1c3c cc96 54bc 4466 ccbc
00000290: 0191 2b3d 4f59 6bbc e4b1 0bbc e95c a63a
000002a0: 238f f93c 1bfe a03d f05e d73b 80a6 62bc
000002b0: bd6c 35bc 5839 6fbd 0f7b 5ebb 1043 18bd
000002c0: 206b 49bc 54a5 91bc 44f7 3a3d 2a7a b83a
000002d0: 672f 93bd 276e 1cbd 7714 11bd ff58 c83c
000002e0: dbb2 8cbd a7af 75bd 29ce 47bd d87b 923c
000002f0: bd07 03bd f12f 563d 72da 87bd a3ec 953d
00000300: d9e1 e0bb dc7c 69bc f774 debc 82e9 2c3d
00000310: bd34 603d bdf1 673d 7c5b 63bb 2e20 3cbd
00000320: 0000 0000 4b5d 103c 0ab6 7f3d efbf 3abc
00000330: 3a6b 33bd 1670 a93b d94f ed3c fb0f 58bd
00000340: 824d 95bd cb90 91bd 8f59 f9bc 9a16 673c
00000350: 9ced 75bd d55c 9ebc 9e45 9abd 0000 0000
00000360: 44b5 2cbc 88fb 6abd bc98 363c e34b 62bd
00000370: abfb 5cbd 42a8 56bd c286 45bc 6e85 7dbc
00000380: 7fe0 1dbd ed0e 5abc bade 7fbc eb45 213d
00000390: d51e acbd 310f 98bc 7e47 b13b 8c58 5fbd
000003a0: c667 d138 cd70 d1bc b365 8fbd 31f8 493d
000003b0: fe8e 21bc cc95 97bd e6a0 57bc 88d0 c2bb
000003c0: be76 79bd af0a 0ebd 3080 973d df52 abbc
000003d0: a02f 643a 5533 5dbc 8472 37bc 426c abbb
000003e0: dcba f0bc c6a2 41bd 6ef2 d63c 4e76 c1bc
000003f0: a11b 5d3d 9c5b afbd 016d b93c 6c92 52bc

arith.constant1 f4 [128]
0.021466287 0.005563256 -0.03835629 -0.08693748 0.039569132 -0.022611456 -0.013494236 0.050250717
0.04486838 -0.068807505 -0.041539907 0.029370183 0.016440267 -0.082658544 0.012166898 0.04974527
-0.035950214 -0.15663156 0.014263576 0.04230496 0.01964562 0.04014303 -0.0338568 0.035264205
-0.012052796 -0.020629495 0.009075367 0.047146123 -0.020340042 -0.037946798 -0.031417083 0.0408493
-0.031197933 -0.0007863819 0.026216008 0.06483598 -0.082047515 -0.011112924 -0.053178523 0.030650847
0.008684591 0.036973402 0.0011357145 -0.015555423 -0.0462785 0.00201793 0.06309058 -0.037631035
0.01820774 -0.039110605 0.038976133 0.01641176 -0.042744845 0.041238844 0.035263255 -0.023947064
0.0058071916 -0.022801837 0.036120553 0.073565006 0.001787198 -0.012524663 0.021699447 0.025055148
-0.03237046 -0.0071997293 0.05335853 0.00785284 0.056429505 0.04451371 0.03292127 0.014726501
0.018751169 0.056097485 0.02653206 -0.0039780634 -0.021658208 -0.022718934 0.0112987915 -0.016177518
0.0005553115 -0.078198895 -0.00907202 -0.042958178 0.04337099 -0.028638087 -0.052635983 0.04994216
0.0010047524 0.019225648 -0.041538194 0.0018059872 0.054925185 0.0024576073 0.040662326 -0.029769571
-0.036211006 0.009000879 0.018239053 0.04483768 0.046613134 0.04469729 -0.027420504 -0.036805045
0.00348718 0.018077103 0.055605687 -0.015063433 -0.016007638 0.054996233 0.027538488 0.0034316427
-0.010932997 0.014112617 -0.020874055 -0.037412487 0.029893719 -0.035465308 0.013433261 0.049165145
-0.026617434 0.09126874 0.038287636 0.060078666 0.041102413 0.050852936 -0.009536762 0.016463714
00000000: 11da af3c f94b b63b 7c1b 1dbd 470c b2bd
00000010: 3e13 223d a93b b9bc ee16 5dbc b2d3 4d3d
00000020: e8c7 373d f3ea 8cbd c025 2abd bd99 f03c
00000030: bdad 863c e248 a9bd ab57 473c b2c1 4b3d
00000040: 8840 13bd 0664 20be c6b1 693c f747 2d3d
00000050: daef a03c 056d 243d 6ead 0abd 3371 103d
00000060: 1779 45bc 30ff a8bc d9b0 143c 4b1c 413d
00000070: 29a0 a6bc 1a6e 1bbd 33af 00bd 9851 273d
00000080: cf92 ffbc 3225 4eba f4c2 d63c bac8 843d
00000090: 8708 a8bd fb12 36bc b9d1 59bd 7c17 fb3c
000000a0: d149 0e3c 6c71 173d 41dc 943a 2cdc 7ebc
000000b0: 868e 3dbd 3f3f 043b a235 813d 0023 1abd
000000c0: 6628 953c 7132 20bd 70a5 1f3d f571 863c
000000d0: 3815 2fbd 10ea 283d 3470 103d a22c c4bc
000000e0: 414a be3b ebca babc 25f3 133d 40a9 963d
000000f0: 6a40 ea3a 3e34 4dbc 0ac3 b13c 7440 cd3c
00000100: e396 04bd b5eb ebbb 798e 5a3d 33a9 003c
00000110: a022 673d 0254 363d 74d8 063d 6c47 713c
00000120: 0d9c 993c 7ac6 653d c359 d93c 6a5a 82bb
00000130: 8e6c b1bc 0f1d babc 911e 393c b786 84bc
00000140: 5392 113a be26 a0bd cfa2 14bc eaf4 2fbd
00000150: c7a5 313d 6c9a eabc d498 57bd 2690 4c3d
00000160: e5b1 833a 1b7f 9d3c f423 2abd e0b6 ec3a
00000170: 3bf9 603d cf0f 213b 8a8d 263d 51df f3bc
00000180: fe51 14bd 6c78 133c 116a 953c b7a7 373d
00000190: 6aed 3e3d 8114 373d f7a0 e0bc e3c0 16bd
000001a0: 2c89 643b 6f16 943c cac2 633d 9ecc 76bc
000001b0: 7322 83bc bb43 613d 6598 e13c 69e5 603b
000001c0: 5020 33bc 9b38 673c 1100 abbc d63d 19bd
000001d0: ace3 f43c 1244 11bd 2e17 5c3c 6461 493d
000001e0: ce0c dabc 1beb ba3d 7fd3 1c3d 0c15 763d
000001f0: 015b 283d 2b4b 503d 1440 1cbc e9de 863c

arith.constant2 f4 [64]
0.066039376 -0.10033455 -0.018426115 -0.016643997 0.038798835 0.046408556 0.008505503 0.04840619
0.05915461 0.031971935 0.062421903 -0.05500466 -0.032509863 -0.04207501 0.06358112 -0.014777426
0.03369463 0.08643951 0.020635981 0.032568634 0.055525288 0.043385647 -0.029428884 -0.009017786
-0.0033163219 0.008161397 -0.006003129 -0.030824821 -0.03492158 0.07707965 -0.02332918 -0.052065853
0.013860691 -0.009562964 -0.0132729905 0.058710083 -0.056977432 0.051145498 0.047021646 0.06382285
-0.046609163 0.051793672 -0.05488549 0.018701313 0.019908432 0.069583066 -0.020253865 0.030465432
0.045932546 -0.046193346 0.053524558 -0.03772929 0.055338405 0.060488496 -0.02719659 0.025459476
0.03484565 -0.000789843 0.12515464 -0.014300107 0.016758252 0.05616513 0.0661971 0.0035291216
00000000: a73f 873d 337c cdbd 5df2 96bc fe58 88bc
00000010: 87eb 1e3d e616 3e3d aa5a 0b3c 9245 463d
00000020: 1b4c 723d 01f5 023d 1cae 7f3d 914c 61bd
00000030: 1029 05bd d856 2cbd d136 823d 041d 72bc
00000040: 6103 0a3d 3307 b13d ca0c a93c b066 053d
00000050: 7c6e 633d 26b5 313d d814 f1bc 56bf 13bc
00000060: a656 59bb 61b7 053c e5b5 c4bb 5684 fcbc
00000070: ee09 0fbd efdb 9d3d d61c bfbc 0143 55bd
00000080: f417 633c faad 1cbc f576 59bc fc79 703d
00000090: 2b61 69bd f17d 513d c599 403d 8eb5 823d
000000a0: 40e9 3ebd 9a25 543d 9ccf 60bd 7f33 993c
000000b0: 0217 a33c 9181 8e3d 6feb a5bc a492 f93c
000000c0: c423 3c3d 3c35 3dbd 913c 5b3d 078a 1abd
000000d0: 86aa 623d c9c2 773d 62cb debc 6490 d03c
000000e0: 50ba 0e3d 770d 4fba 8a28 003e ff4a 6abc
000000f0: 9a48 893c 680d 663d 5892 873d d648 673b

arith.constant3 f4 [32]
0.033762246 0.02129677 -0.020429466 -0.030289408 0.0075694094 -0.06794772 -0.01724398 -0.09581311
0.01956086 0.066498674 0.053342856 0.06024645 0.0769803 0.043951992 -0.032860205 -0.04787855
0.047824185 0.016804961 0.14436322 0.0004956202 0.032669496 0.04459945 0.04141569 0.062054694
0.084226504 0.056090873 0.0 -0.037939873 0.1072112 0.08654446 0.063347556 -0.0016248095
00000000: 484a 0a3d 9076 ae3c b25b a7bc 7e21 f8bc
00000010: cf08 f83b 2d28 8bbd 3f43 8dbc aa39 c4bd
00000020: 193e a03c 7530 883d 0a7e 5a3d fbc4 763d
00000030: d9a7 9d3d 0107 343d 6c98 06bd 4c1c 44bd
00000040: 4be3 433d 8faa 893c f4d3 133e 82ec 013a
00000050: 73d0 053d eaad 363d 80a3 293d 102d 7e3d
00000060: f27e ac3d 8bbf 653d 0000 0000 d766 1bbd
00000070: 8c91 db3d 393e b13d 5dbc 813d 8ff7 d4ba

arith.constant4 f4 [16]
0.046387926 -0.014432065 0.12406586 0.070264906 0.005271519 0.10034438 0.16051468 0.034804758
0.045887385 0.061881077 0.057038654 0.060251098 0.050806593 -0.010017404 0.065750934 0.020183079
00000000: 4401 3e3d 7874 6cbc 3e16 fe3d 0ce7 8f3d
00000010: b5bc ac3b 5b81 cd3d f65d 243e 6f8f 0e3d
00000020: 69f4 3b3d 0377 7d3d 5da1 693d dbc9 763d
00000030: 931a 503d 0a20 24bc 6da8 863d fc56 a53c

arith.constant5 f4 [5]
0.01397949 0.03014213 -0.002223429 0.05555816 -0.10249492
00000000: 3b0a 653c a1ec f63c f3b6 11bb f490 633d
00000010: dbe8 d1bd

arith.constant6 f4 [5, 16]
-0.5571267 0.14312734 -0.31058785 0.17068854 -0.41338617 0.093113795 -0.9179669 -0.5319723
0.116534725 0.34292364 0.31403112 0.19111305 -0.070969544 -0.056539234 -0.78781855 -0.6691946
0.6200741 -0.81920123 -0.41282398 -0.25646493 -0.9405066 0.47779164 0.2397563 0.2072283
-0.92423606 -0.29300573 0.23981649 -1.2980689 -0.3760941 -0.14261864 0.20038411 0.111448064
-0.8007009 -0.12507635 0.7648665 0.7863431 0.40868717 0.38276622 0.3991666 -0.40037712
0.21504661 -0.5076997 -0.62723255 -0.98967844 0.13593012 0.27877355 -0.25974083 -0.28059992
0.18981309 0.0359821 -0.8732073 -0.61551213 0.44895017 0.2862049 0.7185536 -0.34800124
0.5155365 -0.5009886 -0.24954191 0.44983476 0.45829678 0.14989969 -0.36928597 0.07532932
0.38069898 0.23797318 0.34528688 -0.6210297 0.6832866 -0.7109185 0.21296574 0.6325957
-0.3170456 -0.25030246 -0.6046437 -1.1374294 0.33890918 -0.19756019 0.3325365 0.5283747
00000000: db9f 0ebf f98f 123e 5f05 9fbe fac8 2e3e
00000010: 5aa7 d3be 72b2 be3d e1ff 6abf 562f 08bf
00000020: c2a9 ee3d b093 af3e b0c8 a03e 24b3 433e
00000030: 7b58 91bd af95 67bd 7aae 49bf 5650 2bbf
00000040: 2dbd 1e3f 2cb7 51bf aa5d d3be 5f4f 83be
00000050: 0ac5 70bf 1ba1 f43e ad82 753e a833 543e
00000060: bc9a 6cbf d904 96be 7492 753e 1f27 a6bf
00000070: 688f c0be 9f0a 12be 7e31 4d3e e23e e43d
00000080: bcfa 4cbf 0414 00be 4ace 433f c84d 493f
00000090: 723f d13e eff9 c33e 915f cc3e 3bfe ccbe
000000a0: 2e35 5c3e 9cf8 01bf 5092 20bf 915b 7dbf
000000b0: 4431 0b3e 68bb 8e3e c0fc 84be cbaa 8fbe
000000c0: 5d5e 423e f761 133d 838a 5fbf 3492 1dbf
000000d0: ccdc e53e 7389 923e 21f3 373f 382d b2be
000000e0: 33fa 033f ca40 00bf ea87 7fbe be50 e63e
000000f0: e0a5 ea3e 4e7f 193e 0d13 bdbe 4246 9a3d
00000100: faea c23e 3eaf 733e 71c9 b03e cdfb 1ebf
00000110: dfeb 2e3f c1fe 35bf b113 5a3e cbf1 213f
00000120: cd53 a2be a527 80be eec9 1abf 4997 91bf
00000130: 8185 ad3e 384d 4abe 3942 aa3e 9043 073f

arith.constant7 f4 [16, 32]
0.32276896 -0.38804904 -0.059314393 -0.32085663 0.34629485 -0.2657892 0.18563987 0.33675176
0.24578339 0.17070173 0.17601067 -0.09156403 -0.030325238 0.25750643 0.6317106 -0.14078707
0.51702833 0.1018127 0.036523458 0.22474433 0.101923294 0.561839 0.29803297 -0.31904933
0.36480275 0.20133857 0.05219701 0.14889584 -0.2658588 -0.30554536 -0.1441019 0.10780971
0.13943608 0.21285869 0.22842792 -0.3069566 0.6248732 0.006866527 0.38050807 0.7946217
0.29743162 -0.21530342 0.3043035 -0.063627236 -0.24395263 0.4502256 -0.38522038 0.23571311
-0.2240278 0.09015677 0.018791456 0.07799438 0.48198834 0.67033154 0.29786617 0.41274643
0.02621721 0.09642689 0.16668376 -0.13967973 -0.009687031 -0.34444803 0.27759224 -0.6775961
-0.09516232 0.13615932 -0.2665448 -0.37548354 0.3374895 -0.25470215 0.17440104 0.5604724
-0.4597896 -0.354428 -0.35343686 -0.17941354 0.31836674 0.5164401 -0.6965513 0.26334068
-0.20653252 -0.61035883 -0.017781343 -0.9055865 0.091084726 0.027272264 0.016120818 0.19231369
0.23369183 -0.1370816 -0.27197984 0.20681788 0.46437216 0.23044756 0.3902903 -0.42348668
0.9134336 0.124552116 -0.26281357 0.12806964 -0.1260548 0.16361277 -0.010434442 0.23103374
-0.55050206 0.0718991 -0.4609902 -0.09064824 0.091855854 -0.24234451 -0.8733104 0.3192333
-0.059575047 -0.50986814 0.18260872 -0.60410386 0.04060429 -0.36294672 0.045815602 0.26819417
0.33348057 -0.50398296 0.012252927 -0.23025513 0.21427982 0.5009899 -0.116358876 -0.39912063
-0.33887145 -0.20873235 0.03851576 0.13969941 0.5095603 -0.28358093 -0.055500284 0.12959933
-0.16976985 -0.06696274 -0.28377363 -0.23115328 -0.042375825 0.56363285 -0.43585515 -0.3402491
0.13800888 0.09371078 0.1417067 -0.19510056 0.19869138 0.61070204 0.03337543 0.2582081
0.33387145 -0.17176549 -0.31470022 -0.064508714 0.04188948 0.14461567 -0.12282818 -0.6376874
0.89484286 0.32903284 0.22413611 0.2694301 -0.29429802 0.097849585 -0.18868417 -0.66258115
-0.20848751 -0.04064943 0.22075932 0.28005546 0.3333178 -0.64707476 0.40726572 -0.2583615
-0.056213457 -0.1638868 0.28658986 0.37722847 0.21305834 -0.44602737 0.44306964 -0.27053148
0.47622415 -0.37565792 -0.011217713 -0.14361174 0.019124681 0.44807133 0.24264333 0.6941382
-0.021346701 -0.18281363 0.27745578 -0.25973257 0.167024 -0.11263811 -0.038843546 -0.57192606
0.50937855 -0.38385203 0.2894306 0.31257427 0.37541348 -0.852209 0.24802615 -0.27584687
0.56180763 -0.29860398 0.15521921 -0.18550055 -0.19696003 0.4853838 0.33807296 0.28015962
0.6361336 0.62885207 -0.056782514 0.14252937 0.20252968 -0.28016028 0.46616194 0.3945184
-1.4553887 0.06209559 0.2627791 -0.0346384 0.41310412 -0.3371014 0.30210075 -0.35632727
-0.1638601 0.28252092 0.26608542 -0.02690069 -0.38738474 0.0615737 0.09525111 0.23577872
0.19525649 -0.3667857 -0.0040493007 0.49007726 0.056330986 0.75103515 0.11821212 0.3015445
-0.033603683 0.18645914 0.31007764 -0.013113356 0.44455698 -0.3345664 -0.19973357 0.1959491
00000000: f941 a53e 5dae c6be a6f3 72bd 5247 a4be
00000010: 8f4d b13e 8615 88be 6118 3e3e ba6a ac3e
00000020: a4ae 7b3e 6fcc 2e3e 243c 343e ec85 bbbd
00000030: a26c f8bc e2d7 833e c9b7 213f 7c2a 10be
00000040: f85b 043f 2d83 d03d 9f99 153d 6123 663e
00000050: 29bd d03d aed4 0f3f c797 983e 6f5a a3be
00000060: 6dc7 ba3e b32b 4e3e 88cc 553d 2778 183e
00000070: a51e 88be 7170 9cbe 738f 13be 56cb dc3d
00000080: 55c8 0e3e a1f7 593e 02e9 693e 6a29 9dbe
00000090: b1f7 1f3f 9a00 e13b f4d1 c23e 546c 4b3f
000000a0: f548 983e 8078 5cbe abcd 9b3e ff4e 82bd
000000b0: b8ce 79be f883 e63e 9b3b c5be c75e 713e
000000c0: 8b67 65be 1da4 b83d 8af0 993c 84bb 9f3d
000000d0: 2dc7 f63e d99a 2b3f ea81 983e 8053 d33e
000000e0: 79c5 d63c 767b c53d 26af 2a3e 3408 0fbe
000000f0: 5ab6 1ebc 7e5b b0be 9220 8e3e f076 2dbf
00000100: 76e4 c2bd 596d 0b3e 8f78 88be 613f c0be
00000110: 6ccb ac3e 5268 82be 3096 323e 1f7b 0f3f
00000120: 8b69 ebbe 9677 b5be adf5 b4be 2fb8 37be
00000130: f700 a33e 6b35 043f 3051 32bf 97d4 863e
00000140: 437d 53be 7a40 1cbf 2eaa 91bc 84d4 67bf
00000150: a18a ba3d 156a df3c ce0f 843c e1ed 443e
00000160: e94c 6f3e 1e5f 0cbe f140 8bbe 11c8 533e
00000170: 30c2 ed3e 72fa 6b3e 21d4 c73e 3fd3 d8be
00000180: c9d6 693f 2e15 ff3d 808f 86be b024 033e
00000190: 8214 01be 1b8a 273e 39f5 2abc 1c94 6c3e
000001a0: b4ed 0cbf d63f 933d e806 ecbe c9a5 b9bd
000001b0: ec1e bc3d 2929 78be 4591 5fbf 8c72 a33e
000001c0: f704 74bd b886 02bf c8fd 3a3e 8da6 1abf
000001d0: af50 263d 27d4 b9be 24a9 3b3d bf50 893e
000001e0: f7bd aa3e 0705 01bf 80c0 483c 00c8 6bbe
000001f0: 2b6c 5b3e e040 003f 904d eebd 8a59 ccbe
00000200: 8f80 adbe efbd 55be b4c2 1d3d 5d0d 0f3e
00000210: 8b72 023f 8531 91be 4454 63bd b0b5 043e
00000220: 26d8 2dbe c323 89bd c74a 91be 72b3 6cbe
00000230: 4692 2dbd 3e4a 103f 6828 dfbe 2135 aebe
00000240: 3352 0d3e 70eb bf3d 901b 113e 71c8 47be
00000250: c175 4b3e f856 1c3f adb4 083d da33 843e
00000260: 33f1 aa3e 4be3 2fbe 6320 a1be 251d 84bd
00000270: 4e94 2b3d 2116 143e 578d fbbd 7b3f 23bf
00000280: 6c14 653f fe76 a83e f083 653e bef2 893e
00000290: 3bae 96be 5d65 c83d 6c36 41be eb9e 29bf
000002a0: c07d 55be 0480 26bd bb0e 623e 6e63 8f3e
000002b0: a1a8 aa3e b1a6 25bf 2285 d03e f547 84be
000002c0: 1540 66bd f1d1 27be e8bb 923e 1724 c13e
000002d0: f72b 5a3e b35d e4be 06da e23e 1a83 8abe
000002e0: a7d3 f33e 3c56 c0be 80ca 37bc f50e 13be
000002f0: 5dab 9c3c 9b69 e53e 7e77 783e 0bb3 313f
00000300: 47df aebc 7f33 3bbe af0e 8e3e abfb 84be
00000310: 5708 2b3e cfae e6bd 691a 1fbd bf69 12bf
00000320: a266 023f 4188 c4be 3f30 943e bc09 a03e
00000330: 3236 c03e 5e2a 5abf 91fa 7d3e cd3b 8dbe
00000340: a0d2 0f3f 9fe2 98be c9f1 1e3e dbf3 3dbe
00000350: e4af 49be 3a84 f83e e617 ad3e 1571 8f3e
00000360: a7d9 223f 73fc 203f c894 68bd 38f3 113e
00000370: f163 4f3e 2b71 8fbe c7ac ee3e 51fe c93e
00000380: 2d4a babf f257 7e3d fb8a 863e ffe0 0dbd
00000390: 6282 d33e 8e98 acbe f3ac 9a3e 8770 b6be
000003a0: f1ca 27be 95a6 903e 593c 883e d65e dcbc
000003b0: 4b57 c6be b434 7c3d 0413 c33d fa6f 713e
000003c0: 51f1 473e 56cb bbbe ffaf 84bb 68eb fa3e
000003d0: 52bb 663d d743 403f 3219 f23d 0a64 9a3e
000003e0: 04a4 09bd 25ef 3e3e 7fc2 9e3e 67d9 56bc
000003f0: f99c e33e 4a4c abbe f586 4cbe e2a6 483e

tfl.pseudo_qconst i1 [32, 64]
-6 3 2 -10 -11 2 48 11
17 6 -14 4 22 13 -11 12
-44 -3 -127 -40 -35 -6 11 13
15 3 -15 -4 8 12 4 -11
20 -27 -27 19 1 -8 10 4
-73 47 0 -21 35 32 2 81
-13 16 37 4 24 -83 5 3
-25 -4 -70 -33 23 44 -57 0
37 -54 2 19 -57 -33 -63 39
-66 34 -43 40 26 55 41 11
-61 103 0 24 35 -36 -31 71
40 77 -53 127 -62 -17 46 -25
26 -25 -91 18 22 34 82 55
20 -20 16 -25 -20 -22 -41 -4
-54 -37 -27 -10 85 -19 44 62
100 83 -58 -65 90 81 -54 16
-90 -98 75 15 59 -30 -9 -114
20 -20 -97 -101 25 47 97 22
2 11 -16 71 -96 45 62 -59
50 95 -4 44 -30 -42 25 -67
-3 70 -26 -74 71 63 21 -31
-105 0 -91 -13 -33 -109 110 59
16 -81 -127 76 17 -4 -104 -62
-102 -54 106 -34 -77 35 46 -95
49 -48 27 1 76 -10 59 -20
-9 -89 81 52 -52 -100 8 -93
28 -127 -92 3 -75 -36 79 10
-85 -10 45 -27 20 -96 94 28
27 -62 -24 -71 50 43 -112 54
-114 -114 31 42 -70 104 29 35
-23 15 24 -44 -74 -95 -47 -2
37 1 -18 49 66 -60 -102 -88
00000000: fa03 02f6 f502 300b 1106 f204 160d f50c
00000010: d4fd 81d8 ddfa 0b0d 0f03 f1fc 080c 04f5
00000020: 14e5 e513 01f8 0a04 b72f 00eb 2320 0251
00000030: f310 2504 18ad 0503 e7fc badf 172c c700
00000040: 25ca 0213 c7df c127 be22 d528 1a37 290b
00000050: c367 0018 23dc e147 284d cb7f c2ef 2ee7
00000060: 1ae7 a512 1622 5237 14ec 10e7 ecea d7fc
00000070: cadb e5f6 55ed 2c3e 6453 c6bf 5a51 ca10
00000080: a69e 4b0f 3be2 f78e 14ec 9f9b 192f 6116
00000090: 020b f047 a02d 3ec5 325f fc2c e2d6 19bd
000000a0: fd46 e6b6 473f 15e1 9700 a5f3 df93 6e3b
000000b0: 10af 814c 11fc 98c2 9aca 6ade b323 2ea1
000000c0: 31d0 1b01 4cf6 3bec f7a7 5134 cc9c 08a3
000000d0: 1c81 a403 b5dc 4f0a abf6 2de5 14a0 5e1c
000000e0: 1bc2 e8b9 322b 9036 8e8e 1f2a ba68 1d23
000000f0: e90f 18d4 b6a1 d1fe 2501 ee31 42c4 9aa8

tfl.pseudo_qconst1 i1 [64, 128]
8 15 -15 -127 -1 23 27 11
-1 34 -19 9 11 -50 -10 32
-16 4 -14 16 19 -2 13 -8
-27 -15 -123 6 -18 -24 17 20
-64 3 -6 16 -102 3 -86 -17
16 15 -8 -4 -25 45 10 -32
32 12 28 -7 1 30 -15 14
-11 17 14 4 2 7 -6 -19
12 7 -12 -26 -6 -10 -6 11
42 -34 -14 -11 6 14 -7 21
-22 6 27 0 -21 4 -14 -28
-33 25 -25 0 19 11 -22 -3
-11 32 3 10 7 11 8 -22
-18 -13 76 -3 -20 14 -3 24
21 -19 -6 -4 19 22 56 -3
-1 59 5 -1 2 42 12 11
-116 36 0 36 -46 -20 15 -124
45 50 8 3 -127 31 -2 -56
-8 -29 10 25 -111 -12 -5 -15
41 10 -19 5 1 24 -21 32
59 27 48 4 34 -26 23 -26
-55 -3 -27 -5 -9 -53 -41 -88
49 -18 9 -77 10 4 9 -22
-6 5 -73 8 -45 -12 -15 23
-8 -40 5 37 20 5 -26 7
-39 47 -2 5 6 22 -22 8
-27 55 -70 15 -56 0 5 1
8 28 -10 -1 4 -31 -63 -22
-6 8 9 -9 -13 -60 -22 8
33 -71 20 -3 52 1 5 -10
-4 -29 14 19 -12 42 -5 -26
34 -11 4 -11 -6 -22 -31 -101
00000000: 080f f181 ff17 1b0b ff22 ed09 0bce f620
00000010: f004 f210 13fe 0df8 e5f1 8506 eee8 1114
00000020: c003 fa10 9a03 aaef 100f f8fc e72d 0ae0
00000030: 200c 1cf9 011e f10e f511 0e04 0207 faed
00000040: 0c07 f4e6 faf6 fa0b 2ade f2f5 060e f915
00000050: ea06 1b00 eb04 f2e4 df19 e700 130b eafd
00000060: f520 030a 070b 08ea eef3 4cfd ec0e fd18
00000070: 15ed fafc 1316 38fd ff3b 05ff 022a 0c0b
00000080: 8c24 0024 d2ec 0f84 2d32 0803 811f fec8
00000090: f8e3 0a19 91f4 fbf1 290a ed05 0118 eb20
000000a0: 3b1b 3004 22e6 17e6 c9fd e5fb f7cb d7a8
000000b0: 31ee 09b3 0a04 09ea fa05 b708 d3f4 f117
000000c0: f8d8 0525 1405 e607 d92f fe05 0616 ea08
000000d0: e537 ba0f c800 0501 081c f6ff 04e1 c1ea
000000e0: fa08 09f7 f3c4 ea08 21b9 14fd 3401 05f6
000000f0: fce3 0e13 f42a fbe6 22f5 04f5 faea e19b

tfl.pseudo_qconst2 i1 [128, 256]
-3 4 8 16 16 5 -13 -6
-10 -14 19 -48 -74 13 2 -24
14 0 0 -7 -76 -7 0 9
-12 -1 3 -15 22 13 3 0
10 -3 -1 -23 -19 12 -30 7
-5 44 12 1 27 -2 -82 -96
-29 9 -25 8 -8 59 11 30
17 11 -3 15 0 8 -4 -6
-7 -3 3 -13 1 -11 -33 13
58 2 6 15 -5 0 13 -16
9 13 -5 -2 16 -18 11 11
4 1 16 -56 8 -3 -39 9
-25 -8 5 3 30 -7 20 36
13 11 13 -9 -8 2 -1 -10
2 -26 -59 3 -5 22 3 14
-4 -6 2 8 28 68 2 -4
-3 11 14 11 4 -20 6 13
18 -124 -10 3 -16 -37 5 -10
-9 16 -6 -34 72 21 0 -20
14 -49 24 9 -24 -3 9 2
17 -41 -2 -13 44 7 -48 -45
1 15 -14 0 16 12 -14 4
8 -123 9 3 -4 -13 -12 -16
-3 -1 -28 7 14 -17 -11 -9
12 23 8 10 -3 -6 7 12
-3 18 9 -6 -10 11 10 -40
-14 -9 -5 -15 -10 -25 21 -5
-11 -27 32 4 8 12 4 6
4 -18 83 28 -13 -17 -127 -17
-5 -1 -10 14 15 -5 -2 -1
-10 -10 17 7 -56 -1 13 -26
-3 -10 -17 -75 -57 -12 -7 -42
00000000: fd04 0810 1005 f3fa f6f2 13d0 b60d 02e8
00000010: 0e00 00f9 b4f9 0009 f4ff 03f1 160d 0300
00000020: 0afd ffe9 ed0c e207 fb2c 0c01 1bfe aea0
00000030: e309 e708 f83b 0b1e 110b fd0f 0008 fcfa
00000040: f9fd 03f3 01f5 df0d 3a02 060f fb00 0df0
00000050: 090d fbfe 10ee 0b0b 0401 10c8 08fd d909
00000060: e7f8 0503 1ef9 1424 0d0b 0df7 f802 fff6
00000070: 02e6 c503 fb16 030e fcfa 0208 1c44 02fc
00000080: fd0b 0e0b 04ec 060d 1284 f603 f0db 05f6
00000090: f710 fade 4815 00ec 0ecf 1809 e8fd 0902
000000a0: 11d7 fef3 2c07 d0d3 010f f200 100c f204
000000b0: 0885 0903 fcf3 f4f0 fdff e407 0eef f5f7
000000c0: 0c17 080a fdfa 070c fd12 09fa f60b 0ad8
000000d0: f2f7 fbf1 f6e7 15fb f5e5 2004 080c 0406
000000e0: 04ee 531c f3ef 81ef fbff f60e 0ffb feff
000000f0: f6f6 1107 c8ff 0de6 fdf6 efb5 c7f4 f9d6

sequential_1/dense_1/MatMul i1 [256, 21]
79 -3 51 -30 -85 -49 42 -30
0 18 11 49 51 2 -81 1
127 65 -25 -23 49 -60 -19 8
-33 -6 18 -15 5 -38 -29 -1
-1 -119 -127 1 18 -41 -66 14
-5 -118 48 10 19 58 38 -18
13 -17 -17 -127 6 10 -12 -7
19 -27 32 48 -37 -2 53 44
38 -8 -58 -13 18 -20 -1 70
-6 127 35 76 40 5 -25 28
17 -37 27 -44 -12 -8 -54 8
14 -108 -90 -65 65 26 -59 -37
-58 -42 43 14 32 114 -127 -86
-43 22 4 -1 -35 -8 -12 -20
1 1 -40 92 -127 -17 -34 1
-30 -47 57 -64 -11 -15 64 -53
-29 111 10 11 -38 19 72 6
72 -42 40 -82 14 54 -25 11
99 13 127 -7 25 -106 -9 -82
-82 -87 127 75 -9 -33 -114 6
-106 -20 13 -86 -24 -35 -91 58
36 7 -4 -8 -10 11 -1 -8
-127 -1 0 0 29 10 2 -9
51 43 -5 -12 -34 -30 -7 -2
0 19 5 5 19 -92 -43 -58
-2 0 34 9 13 -35 -34 14
13 -127 -2 3 5 -1 -19 10
-1 -2 -78 -15 -86 4 -127 6
1 0 -41 -17 10 -3 -30 9
-15 6 11 -42 5 -23 -4 7
-7 -127 -9 90 14 3 28 8
22 30 -15 17 22 -21 0 -12
00000000: 4ffd 33e2 abcf 2ae2 0012 0b31 3302 af01
00000010: 7f41 e7e9 31c4 ed08 dffa 12f1 05da e3ff
00000020: ff89 8101 12d7 be0e fb8a 300a 133a 26ee
00000030: 0def ef81 060a f4f9 13e5 2030 dbfe 352c
00000040: 26f8 c6f3 12ec ff46 fa7f 234c 2805 e71c
00000050: 11db 1bd4 f4f8 ca08 0e94 a6bf 411a c5db
00000060: c6d6 2b0e 2072 81aa d516 04ff ddf8 f4ec
00000070: 0101 d85c 81ef de01 e2d1 39c0 f5f1 40cb
00000080: e36f 0a0b da13 4806 48d6 28ae 0e36 e70b
00000090: 630d 7ff9 1996 f7ae aea9 7f4b f7df 8e06
000000a0: 96ec 0daa e8dd a53a 2407 fcf8 f60b fff8
000000b0: 81ff 0000 1d0a 02f7 332b fbf4 dee2 f9fe
000000c0: 0013 0505 13a4 d5c6 fe00 2209 0ddd de0e
000000d0: 0d81 fe03 05ff ed0a fffe b2f1 aa04 8106
000000e0: 0100 d7ef 0afd e209 f106 0bd6 05e9 fc07
000000f0: f981 f75a 0e03 1c08 161e f111 16eb 00f4
