models/tflite_model.tflite (tflite, 201136 bytes, 12 tensors)

arith.constant f4 [5, 16]
000000 db 9f 0e bf f9 8f 12 3e 5f 05 9f be fa c8 2e 3e
       -0.5571267 0.14312734 -0.31058785 0.17068854
000010 5a a7 d3 be 72 b2 be 3d e1 ff 6a bf 56 2f 08 bf
       -0.41338617 0.093113795 -0.9179669 -0.5319723
000020 c2 a9 ee 3d b0 93 af 3e b0 c8 a0 3e 24 b3 43 3e
       0.116534725 0.34292364 0.31403112 0.19111305
000030 7b 58 91 bd af 95 67 bd 7a ae 49 bf 56 50 2b bf
       -0.070969544 -0.056539234 -0.78781855 -0.6691946
000040 2d bd 1e 3f 2c b7 51 bf aa 5d d3 be 5f 4f 83 be
       0.6200741 -0.81920123 -0.41282398 -0.25646493
000050 0a c5 70 bf 1b a1 f4 3e ad 82 75 3e a8 33 54 3e
       -0.9405066 0.47779164 0.2397563 0.2072283
000060 bc 9a 6c bf d9 04 96 be 74 92 75 3e 1f 27 a6 bf
       -0.92423606 -0.29300573 0.23981649 -1.2980689
000070 68 8f c0 be 9f 0a 12 be 7e 31 4d 3e e2 3e e4 3d
       -0.3760941 -0.14261864 0.20038411 0.111448064
000080 bc fa 4c bf 04 14 00 be 4a ce 43 3f c8 4d 49 3f
       -0.8007009 -0.12507635 0.7648665 0.7863431
000090 72 3f d1 3e ef f9 c3 3e 91 5f cc 3e 3b fe cc be
       0.40868717 0.38276622 0.3991666 -0.40037712
0000a0 2e 35 5c 3e 9c f8 01 bf 50 92 20 bf 91 5b 7d bf
       0.21504661 -0.5076997 -0.62723255 -0.98967844
0000b0 44 31 0b 3e 68 bb 8e 3e c0 fc 84 be cb aa 8f be
       0.13593012 0.27877355 -0.25974083 -0.28059992
0000c0 5d 5e 42 3e f7 61 13 3d 83 8a 5f bf 34 92 1d bf
       0.18981309 0.0359821 -0.8732073 -0.61551213
0000d0 cc dc e5 3e 73 89 92 3e 21 f3 37 3f 38 2d b2 be
       0.44895017 0.2862049 0.7185536 -0.34800124
0000e0 33 fa 03 3f ca 40 00 bf ea 87 7f be be 50 e6 3e
       0.5155365 -0.5009886 -0.24954191 0.44983476
0000f0 e0 a5 ea 3e 4e 7f 19 3e 0d 13 bd be 42 46 9a 3d
       0.45829678 0.14989969 -0.36928597 0.07532932
000100 fa ea c2 3e 3e af 73 3e 71 c9 b0 3e cd fb 1e bf
       0.38069898 0.23797318 0.34528688 -0.6210297
000110 df eb 2e 3f c1 fe 35 bf b1 13 5a 3e cb f1 21 3f
       0.6832866 -0.7109185 0.21296574 0.6325957
000120 cd 53 a2 be a5 27 80 be ee c9 1a bf 49 97 91 bf
       -0.3170456 -0.25030246 -0.6046437 -1.1374294
000130 81 85 ad 3e 38 4d 4a be 39 42 aa 3e 90 43 07 3f
       0.33890918 -0.19756019 0.3325365 0.5283747

arith.constant1 f4 [16, 32]
000000 f9 41 a5 3e 5d ae c6 be a6 f3 72 bd 52 47 a4 be
       0.32276896 -0.38804904 -0.059314393 -0.32085663
000010 8f 4d b1 3e 86 15 88 be 61 18 3e 3e ba 6a ac 3e
       0.34629485 -0.2657892 0.18563987 0.33675176
000020 a4 ae 7b 3e 6f cc 2e 3e 24 3c 34 3e ec 85 bb bd
       0.24578339 0.17070173 0.17601067 -0.09156403
000030 a2 6c f8 bc e2 d7 83 3e c9 b7 21 3f 7c 2a 10 be
       -0.030325238 0.25750643 0.6317106 -0.14078707
000040 f8 5b 04 3f 2d 83 d0 3d 9f 99 15 3d 61 23 66 3e
       0.51702833 0.1018127 0.036523458 0.22474433
000050 29 bd d0 3d ae d4 0f 3f c7 97 98 3e 6f 5a a3 be
       0.101923294 0.561839 0.29803297 -0.31904933
000060 6d c7 ba 3e b3 2b 4e 3e 88 cc 55 3d 27 78 18 3e
       0.36480275 0.20133857 0.05219701 0.14889584
000070 a5 1e 88 be 71 70 9c be 73 8f 13 be 56 cb dc 3d
       -0.2658588 -0.30554536 -0.1441019 0.10780971
000080 55 c8 0e 3e a1 f7 59 3e 02 e9 69 3e 6a 29 9d be
       0.13943608 0.21285869 0.22842792 -0.3069566
000090 b1 f7 1f 3f 9a 00 e1 3b f4 d1 c2 3e 54 6c 4b 3f
       0.6248732 0.006866527 0.38050807 0.7946217
0000a0 f5 48 98 3e 80 78 5c be ab cd 9b 3e ff 4e 82 bd
       0.29743162 -0.21530342 0.3043035 -0.063627236
0000b0 b8 ce 79 be f8 83 e6 3e 9b 3b c5 be c7 5e 71 3e
       -0.24395263 0.4502256 -0.38522038 0.23571311
0000c0 8b 67 65 be 1d a4 b8 3d 8a f0 99 3c 84 bb 9f 3d
       -0.2240278 0.09015677 0.018791456 0.07799438
0000d0 2d c7 f6 3e d9 9a 2b 3f ea 81 98 3e 80 53 d3 3e
       0.48198834 0.67033154 0.29786617 0.41274643
0000e0 79 c5 d6 3c 76 7b c5 3d 26 af 2a 3e 34 08 0f be
       0.02621721 0.09642689 0.16668376 -0.13967973
0000f0 5a b6 1e bc 7e 5b b0 be 92 20 8e 3e f0 76 2d bf
       -0.009687031 -0.34444803 0.27759224 -0.6775961
000100 76 e4 c2 bd 59 6d 0b 3e 8f 78 88 be 61 3f c0 be
       -0.09516232 0.13615932 -0.2665448 -0.37548354
000110 6c cb ac 3e 52 68 82 be 30 96 32 3e 1f 7b 0f 3f
       0.3374895 -0.25470215 0.17440104 0.5604724
000120 8b 69 eb be 96 77 b5 be ad f5 b4 be 2f b8 37 be
       -0.4597896 -0.354428 -0.35343686 -0.17941354
000130 f7 00 a3 3e 6b 35 04 3f 30 51 32 bf 97 d4 86 3e
       0.31836674 0.5164401 -0.6965513 0.26334068
000140 43 7d 53 be 7a 40 1c bf 2e aa 91 bc 84 d4 67 bf
       -0.20653252 -0.61035883 -0.017781343 -0.9055865
000150 a1 8a ba 3d 15 6a df 3c ce 0f 84 3c e1 ed 44 3e
       0.091084726 0.027272264 0.016120818 0.19231369
000160 e9 4c 6f 3e 1e 5f 0c be f1 40 8b be 11 c8 53 3e
       0.23369183 -0.1370816 -0.27197984 0.20681788
000170 30 c2 ed 3e 72 fa 6b 3e 21 d4 c7 3e 3f d3 d8 be
       0.46437216 0.23044756 0.3902903 -0.42348668
000180 c9 d6 69 3f 2e 15 ff 3d 80 8f 86 be b0 24 03 3e
       0.9134336 0.124552116 -0.26281357 0.12806964
000190 82 14 01 be 1b 8a 27 3e 39 f5 2a bc 1c 94 6c 3e
       -0.1260548 0.16361277 -0.010434442 0.23103374
0001a0 b4 ed 0c bf d6 3f 93 3d e8 06 ec be c9 a5 b9 bd
       -0.55050206 0.0718991 -0.4609902 -0.09064824
0001b0 ec 1e bc 3d 29 29 78 be 45 91 5f bf 8c 72 a3 3e
       0.091855854 -0.24234451 -0.8733104 0.3192333
0001c0 f7 04 74 bd b8 86 02 bf c8 fd 3a 3e 8d a6 1a bf
       -0.059575047 -0.50986814 0.18260872 -0.60410386
0001d0 af 50 26 3d 27 d4 b9 be 24 a9 3b 3d bf 50 89 3e
       0.04060429 -0.36294672 0.045815602 0.26819417
0001e0 f7 bd aa 3e 07 05 01 bf 80 c0 48 3c 00 c8 6b be
       0.33348057 -0.50398296 0.012252927 -0.23025513
0001f0 2b 6c 5b 3e e0 40 00 3f 90 4d ee bd 8a 59 cc be
       0.21427982 0.5009899 -0.116358876 -0.39912063
000200 8f 80 ad be ef bd 55 be b4 c2 1d 3d 5d 0d 0f 3e
       -0.33887145 -0.20873235 0.03851576 0.13969941
000210 8b 72 02 3f 85 31 91 be 44 54 63 bd b0 b5 04 3e
       0.5095603 -0.28358093 -0.055500284 0.12959933
000220 26 d8 2d be c3 23 89 bd c7 4a 91 be 72 b3 6c be
       -0.16976985 -0.06696274 -0.28377363 -0.23115328
000230 46 92 2d bd 3e 4a 10 3f 68 28 df be 21 35 ae be
       -0.042375825 0.56363285 -0.43585515 -0.3402491
000240 33 52 0d 3e 70 eb bf 3d 90 1b 11 3e 71 c8 47 be
       0.13800888 0.09371078 0.1417067 -0.19510056
000250 c1 75 4b 3e f8 56 1c 3f ad b4 08 3d da 33 84 3e
       0.19869138 0.61070204 0.03337543 0.2582081
000260 33 f1 aa 3e 4b e3 2f be 63 20 a1 be 25 1d 84 bd
       0.33387145 -0.17176549 -0.31470022 -0.064508714
000270 4e 94 2b 3d 21 16 14 3e 57 8d fb bd 7b 3f 23 bf
       0.04188948 0.14461567 -0.12282818 -0.6376874
000280 6c 14 65 3f fe 76 a8 3e f0 83 65 3e be f2 89 3e
       0.89484286 0.32903284 0.22413611 0.2694301
000290 3b ae 96 be 5d 65 c8 3d 6c 36 41 be eb 9e 29 bf
       -0.29429802 0.097849585 -0.18868417 -0.66258115
0002a0 c0 7d 55 be 04 80 26 bd bb 0e 62 3e 6e 63 8f 3e
       -0.20848751 -0.04064943 0.22075932 0.28005546
0002b0 a1 a8 aa 3e b1 a6 25 bf 22 85 d0 3e f5 47 84 be
       0.3333178 -0.64707476 0.40726572 -0.2583615
0002c0 15 40 66 bd f1 d1 27 be e8 bb 92 3e 17 24 c1 3e
       -0.056213457 -0.1638868 0.28658986 0.37722847
0002d0 f7 2b 5a 3e b3 5d e4 be 06 da e2 3e 1a 83 8a be
       0.21305834 -0.44602737 0.44306964 -0.27053148
0002e0 a7 d3 f3 3e 3c 56 c0 be 80 ca 37 bc f5 0e 13 be
       0.47622415 -0.37565792 -0.011217713 -0.14361174
0002f0 5d ab 9c 3c 9b 69 e5 3e 7e 77 78 3e 0b b3 31 3f
       0.019124681 0.44807133 0.24264333 0.6941382
000300 47 df ae bc 7f 33 3b be af 0e 8e 3e ab fb 84 be
       -0.021346701 -0.18281363 0.27745578 -0.25973257
000310 57 08 2b 3e cf ae e6 bd 69 1a 1f bd bf 69 12 bf
       0.167024 -0.11263811 -0.038843546 -0.57192606
000320 a2 66 02 3f 41 88 c4 be 3f 30 94 3e bc 09 a0 3e
       0.50937855 -0.38385203 0.2894306 0.31257427
000330 32 36 c0 3e 5e 2a 5a bf 91 fa 7d 3e cd 3b 8d be
       0.37541348 -0.852209 0.24802615 -0.27584687
000340 a0 d2 0f 3f 9f e2 98 be c9 f1 1e 3e db f3 3d be
       0.56180763 -0.29860398 0.15521921 -0.18550055
000350 e4 af 49 be 3a 84 f8 3e e6 17 ad 3e 15 71 8f 3e
       -0.19696003 0.4853838 0.33807296 0.28015962
000360 a7 d9 22 3f 73 fc 20 3f c8 94 68 bd 38 f3 11 3e
       0.6361336 0.62885207 -0.056782514 0.14252937
000370 f1 63 4f 3e 2b 71 8f be c7 ac ee 3e 51 fe c9 3e
       0.20252968 -0.28016028 0.46616194 0.3945184
000380 2d 4a ba bf f2 57 7e 3d fb 8a 86 3e ff e0 0d bd
       -1.4553887 0.06209559 0.2627791 -0.0346384
000390 62 82 d3 3e 8e 98 ac be f3 ac 9a 3e 87 70 b6 be
       0.41310412 -0.3371014 0.30210075 -0.35632727
0003a0 f1 ca 27 be 95 a6 90 3e 59 3c 88 3e d6 5e dc bc
       -0.1638601 0.28252092 0.26608542 -0.02690069
0003b0 4b 57 c6 be b4 34 7c 3d 04 13 c3 3d fa 6f 71 3e
       -0.38738474 0.0615737 0.09525111 0.23577872
0003c0 51 f1 47 3e 56 cb bb be ff af 84 bb 68 eb fa 3e
       0.19525649 -0.3667857 -0.0040493007 0.49007726
0003d0 52 bb 66 3d d7 43 40 3f 32 19 f2 3d 0a 64 9a 3e
       0.056330986 0.75103515 0.11821212 0.3015445
0003e0 04 a4 09 bd 25 ef 3e 3e 7f c2 9e 3e 67 d9 56 bc
       -0.033603683 0.18645914 0.31007764 -0.013113356
0003f0 f9 9c e3 3e 4a 4c ab be f5 86 4c be e2 a6 48 3e
       0.44455698 -0.3345664 -0.19973357 0.1959491

arith.constant2 f4 [32, 64]
000000 a6 fd 57 bd c1 53 e5 3c f4 a9 b2 3c fa 11 b2 bd
       -0.052732132 0.027994039 0.021809556 -0.08694835
000010 d6 2a c4 bd f2 fa 8d 3c 10 24 da 3e 56 a1 c0 3d
       -0.09578483 0.017331574 0.42605639 0.094057724
000020 54 2c 1c 3e af a6 4c 3d c7 9d f7 bd db 9a ff 3c
       0.15251285 0.04996365 -0.120906405 0.03120177
000030 1a bc 49 3e ad a7 e6 3d 7b b4 d0 bd 80 8c d7 3d
       0.19700661 0.1126245 -0.10190674 0.10524845
000040 62 a0 c8 be 2d 59 f8 bc dc 83 90 bf 44 cc b7 be
       -0.39184862 -0.03031596 -1.129024 -0.3589803
000050 cd 79 9d be 06 a4 64 bd 8a 52 ca 3d b4 44 ed 3d
       -0.3075699 -0.055820487 0.09879024 0.1158537
000060 3e 65 05 3e 42 74 e3 3c 2c 8f 06 be 7a a4 1a bd
       0.13026902 0.027765397 -0.13140553 -0.037754513
000070 bb 6f 91 3d 1f 1b e2 3d ed a5 01 3d 16 0f c7 bd
       0.07101389 0.11040329 0.03165238 -0.09719674
000080 6d ff 36 3e 6c 90 76 be 34 ce 78 be 75 5e 31 3e
       0.17870875 -0.2407853 -0.2429741 0.17321189
000090 97 35 12 3c fd 5c 8f bd 80 ee b4 3d c9 68 0f 3d
       0.00892391 -0.07000158 0.08834553 0.03501204
0000a0 17 5c 26 bf 71 22 d4 3e 86 d8 d2 3a e7 8f 3c be
       -0.6498427 0.41432527 0.0016086258 -0.1841427
0000b0 4c dd a0 3e 04 44 90 3e 40 44 92 3c 07 f7 37 3f
       0.31418836 0.28176892 0.01785481 0.7186131
0000c0 cd 0e f3 bd 28 4b 13 3e ab f6 a6 3e 1e b1 0c 3d
       -0.118680574 0.14384139 0.32610068 0.0343486
0000d0 f1 7a 59 3e 4e 35 3c bf 0c ab 38 3d 00 76 eb 3c
       0.21238305 -0.73518836 0.045084998 0.02874279
0000e0 5c 53 66 be 51 81 0f bd cc 3d 1f bf 9d cb 95 be
       -0.22492737 -0.035035435 -0.6220367 -0.29256907
0000f0 b9 fb 53 3e 9c cd c6 3e 73 8c 02 bf 53 1a f7 ba
       0.20701493 0.38828743 -0.5099556 -0.001885245
000100 bf 87 0e 3e 5a 67 50 be 97 7e e7 3b 3a ee 92 3d
       0.1391897 -0.20351925 0.007064651 0.07174344
000110 30 06 5a be d5 f9 f8 bd 66 1a 70 be 0b 4b 14 3e
       -0.21291423 -0.12157027 -0.2344757 0.14481752
000120 43 f5 7a be 83 1c 02 3e 68 f2 22 be b2 5d 1a 3e
       -0.24507622 0.12706189 -0.15912783 0.15074804
000130 c5 61 c4 3d 00 31 52 3e e1 44 1d 3e 54 6c 23 3d
       0.095889606 0.20526505 0.15358306 0.03989823
000140 e8 3f 6b be cd 96 c4 3e c1 f8 a1 3a 5e a2 b7 3d
       -0.22973597 0.38396302 0.001235746 0.08966516
000150 cd 57 06 3e be 17 08 be 24 a8 ef bd 8f 50 88 3e
       0.13119431 -0.13290307 -0.11701992 0.2662396
000160 8c 72 17 3e 01 bc 93 3e 8c f5 4b be 13 22 f3 3e
       0.1478979 0.28854373 -0.19917887 0.47486934
000170 53 8a 6d be 8b a6 83 bd e4 aa 31 3e 0d 3d bd bd
       -0.23197298 -0.0642825 0.17350346 -0.0924016
000180 f7 3e c4 3d 76 99 be bd 34 b3 ae be b2 cf 88 3d
       0.09582322 -0.09306614 -0.34121096 0.0668024
000190 e1 92 ab 3d ed 24 03 3e 20 c0 9c 3e 1a af 52 3e
       0.08377624 0.12807055 0.3061533 0.20574608
0001a0 c2 6f 96 3d 81 bc 9c bd bb f8 75 3d fa 83 be bd
       0.07345535 -0.07653142 0.06005166 -0.09302516
0001b0 e2 ff 97 bd 4d 27 a8 bd 60 e2 1b be 62 4a 5d bc
       -0.07421853 -0.08210621 -0.15223074 -0.013506504
0001c0 86 52 4f be 97 4c 0c be 03 3a d2 bd e3 8d 20 bd
       -0.20246324 -0.13701092 -0.10264971 -0.039197814
0001d0 6a 9a a3 3e f4 da 8d bd 8b 44 28 3e 7a 0d 6c 3e
       0.31953746 -0.069265276 0.16432397 0.23052016
0001e0 ff fc be 3e 20 d3 9e 3e 00 4e 5e be 04 a4 79 be
       0.37302396 0.3102045 -0.21709442 -0.24378973
0001f0 42 0f ac 3e 52 cc 9b 3e df 5c 50 be 0b fe 6d 3d
       0.3360539 0.30429322 -0.20347928 0.058103602
000200 32 51 4f be dc 33 62 be 28 57 2d 3e 30 81 0a 3d
       -0.20245817 -0.22090095 0.16927779 0.03381461
000210 a2 a1 08 3e 5e cc 88 bd a3 bf 9d bc ad 1b 83 be
       0.13342908 -0.06679605 -0.019256419 -0.25607052
000220 9f 72 37 3d 5f 43 39 bd 08 37 60 be 89 0b 68 be
       0.044787046 -0.045230266 -0.21895993 -0.2266065
000230 25 98 68 3d 48 67 d6 3d c9 a6 5e 3e 32 c7 48 3d
       0.05678572 0.10468918 0.21743311 0.049018092
000240 24 29 88 3b 82 80 c3 3c 74 13 12 bd 6c 30 24 3e
       0.004155295 0.023864988 -0.035663083 0.16034096
000250 fc 97 5d be 15 48 d0 3d 58 b9 0e 3e 67 b6 08 be
       -0.21640009 0.101699986 0.1393789 -0.13350831
000260 57 54 e6 3d 3c fb 5a 3e c5 3d 1a bc 3a 2e cc 3d
       0.11246555 0.21384901 -0.009414141 0.099697545
000270 53 99 89 bd 8f 2b c0 bd 81 29 65 3d 17 7f 19 be
       -0.067186974 -0.09383308 0.055947784 -0.14989887
000280 f9 5d fe bb e4 58 20 3e 0b 8a 72 bd 1c c0 29 be
       -0.0077626673 0.15658909 -0.05921368 -0.1657719
000290 66 b1 23 3e d3 93 11 3e 3f 64 45 3d 87 c4 8d bd
       0.15985641 0.14216547 0.048191305 -0.0692225
0002a0 2f 0d 71 be 5b 53 81 ba 8a 7b 52 be 38 34 f0 bc
       -0.23540185 -0.0009866761 -0.20554939 -0.029321775
0002b0 b1 48 97 bd b5 f5 7a be 36 d8 7d 3e 32 17 08 3e
       -0.07386912 -0.24507792 0.24789509 0.13290098
0002c0 48 ba 11 3d 9c a7 3a be 63 5f 92 be 54 75 2f 3e
       0.035578042 -0.18228 -0.285884 0.17134601
0002d0 67 14 1e 3d 55 6d 0a bc d8 b1 70 be 35 c9 0f be
       0.038593676 -0.008448918 -0.23505342 -0.14041598
0002e0 bf 44 6a be 05 00 f9 bd 3c 60 74 3e 3c cc 9e bd
       -0.22877787 -0.12158207 0.23864836 -0.07753798
0002f0 60 7c 32 be 41 f4 a1 3d 0b 84 d3 3d 3b e4 5a be
       -0.17430258 0.07907916 0.103279196 -0.21376126
000300 c5 ea d7 3d e8 c5 d6 bd 80 92 6c 3d 00 29 06 3b
       0.105428256 -0.10486966 0.0577569 0.0020471215
000310 6f e5 28 3e 3c 1b aa bc 4e cc 02 3e d7 fd 35 bd
       0.16493772 -0.02076494 0.12773249 -0.044431534
000320 7c a5 9e bc e4 61 45 be 00 2b 34 3e ed 22 e7 3d
       -0.019366018 -0.19275624 0.17594528 0.112859584
000330 f3 eb e6 bd 14 a6 5d be 9b 0d 92 3c 34 37 4e be
       -0.112754725 -0.21645385 0.017828753 -0.20138246
000340 f5 d0 74 3d 94 38 8d be 5f f6 4c be 6c bd df 3b
       0.05976959 -0.27582228 -0.20015858 0.006828001
000350 a0 bf 27 be 39 4b a2 bd 08 53 30 3e 56 ea af 3c
       -0.16381693 -0.07924504 0.17219174 0.021474045
000360 6c 82 3d be 1a ef ad bc b8 4a c6 3d 0d aa 6c bd
       -0.18506783 -0.021232177 0.0968222 -0.05777936
000370 a0 32 30 3d c9 ff 54 be 44 08 52 3e 2e ba 7c 3d
       0.04301703 -0.208007 0.20510966 0.061700992
000380 27 9c 71 3d a1 81 0a be 03 b3 55 bd 9a db 1d be
       0.05898681 -0.13526012 -0.052172672 -0.15415803
000390 f5 df dd 3d 45 2b bf 3d 35 15 78 be 05 34 ee 3d
       0.10833732 0.09334425 -0.2422684 0.11631016
0003a0 90 46 7e be b6 9b 7e be dc d0 8b 3d cf b1 bc 3d
       -0.24831605 -0.24864087 0.06826946 0.09213602
0003b0 87 3b 1c be 0d 33 67 3e 73 41 82 3d 04 bc 9a 3d
       -0.15257083 0.22578068 0.0636014 0.075553924
0003c0 a5 a2 50 bd 50 20 06 3d 45 e8 52 3d 44 20 c2 bd
       -0.05093636 0.03274566 0.05149104 -0.094788104
0003d0 e4 83 24 be c8 2d 52 be f8 de d1 bd a3 eb a5 bb
       -0.16065937 -0.20525277 -0.10247606 -0.0050634905
0003e0 94 84 a2 3d 0d f3 24 3b b0 c0 21 bd 8b b0 d9 3d
       0.079354435 0.0025169284 -0.0394904 0.10629376
0003f0 5e c5 12 3e 31 76 06 be 29 68 63 be b7 5b 44 be
       0.14333102 -0.13131024 -0.22207703 -0.19175611

arith.constant3 f4 [64, 128]
000000 c3 72 57 3d 0a c7 d3 3d 45 ea d2 bd a5 a5 5e bf
       0.05259968 0.10340698 -0.102985896 -0.86971503
000010 e4 99 19 bc e2 b4 20 3e 2f a2 3e 3e 71 64 9e 3d
       -0.009375069 0.15694001 0.18616556 0.077340014
000020 52 68 f7 bb 7d 42 6c 3e a3 8a 07 be d1 b0 82 3d
       -0.0075502777 0.23072238 -0.1323648 0.06381381
000030 8f f1 9c 3d c3 73 af be 98 be 86 bd 64 47 62 3e
       0.07663261 -0.34268007 -0.065793216 0.22097546
000040 4c f1 e0 bd a5 19 d0 3c a7 05 bf bd bc 36 dc 3d
       -0.10983524 0.025402853 -0.0932725 0.10752627
000050 9e 92 04 3e 9c 0e 63 bc ed a2 b5 3d df 80 67 bd
       0.12946555 -0.013858464 0.08868966 -0.056519385
000060 06 e0 3b be c8 3b cd bd ed 06 57 bf aa 18 21 3d
       -0.18347177 -0.10021168 -0.8399494 0.039330162
000070 83 39 ff bd 6f d9 29 be 07 94 ec 3d cc bd 0a 3e
       -0.12462141 -0.1658685 0.115516715 0.13548964
000080 50 43 e1 be bc 31 b2 3c ef 6f 2c bd 05 11 e5 3d
       -0.43996668 0.02175223 -0.042098936 0.11184887
000090 83 4f 32 bf 54 98 af 3c 07 4d 17 bf 79 77 ec bd
       -0.69652575 0.02143494 -0.5910191 -0.11546225
0000a0 88 9a e4 3d 51 d7 ce 3d cb 55 62 bd 48 95 d9 bc
       0.11162287 0.10099662 -0.0552576 -0.02656044
0000b0 9c c2 2e be 09 40 9f 3e 72 e3 87 3d 68 e7 60 be
       -0.17066425 0.31103542 0.066351786 -0.21963274
0000c0 35 fd 5d 3e c4 50 a5 3d fa 79 46 3e a2 1c 45 bd
       0.21678622 0.080720454 0.19382468 -0.04812301
0000d0 e2 be d3 3b 6d c9 50 3e 96 d9 d7 bd 33 58 c7 3d
       0.006461964 0.20389338 -0.10539548 0.097336195
0000e0 cf 76 99 bd e8 60 f1 3d cc f7 be 3d c3 4f f1 3c
       -0.07493364 0.117860615 0.09324607 0.029456979
0000f0 75 83 89 3c e2 f9 43 3d 25 c6 22 bd f4 07 04 be
       0.016786316 0.04784573 -0.039739747 -0.12893659
000100 e6 ac a9 3d e0 c1 40 3d ac d4 a8 bd 5d 0a 34 be
       0.08284931 0.047059894 -0.08243689 -0.17582078
000110 59 11 1f bd 7f 24 90 bd 9f d7 24 bd e3 8b 9a 3d
       -0.038834903 -0.07038211 -0.040244695 0.075462125
000120 cf a0 93 3e f3 82 71 be 41 14 c5 bd 2f 94 9e bd
       0.28833625 -0.2358511 -0.09623004 -0.077431075
000130 0e a9 2d 3d 59 aa ca 3d a1 55 4a bd ed d2 0f 3e
       0.04239755 0.098957725 -0.04939807 0.14045306
000140 f0 cd 19 be c0 5f 24 3d 52 ca 3e 3e 81 77 2a 3b
       -0.15019965 0.040130377 0.18631867 0.0026011171
000150 cb 61 12 be b0 b7 f0 3c a1 be c6 bd 0c 15 47 be
       -0.14295118 0.029384464 -0.09704328 -0.19441622
000160 de 61 6a be 7e ab 2f 3e 5b 6d 2c be de f1 11 3b
       -0.22888896 0.17155263 -0.16838591 0.0022269408
000170 f3 ef 03 3e 05 8f 98 3d f8 de 16 be f8 78 9d bc
       0.12884502 0.07449154 -0.14733493 -0.019222721
000180 15 df 96 bd 51 df 5d 3e a8 60 b6 3c 5b a0 87 3d
       -0.07366768 0.2166722 0.022262886 0.06622382
000190 9a 40 37 3d 61 47 9e 3d c4 d8 53 3d 8d 4e 1d be
       0.044739343 0.07728458 0.051720396 -0.15361996
0001a0 de fe f6 bd 76 ad b8 bd f6 b9 04 3f cf 72 93 bc
       -0.12060331 -0.0901746 0.51846254 -0.017999081
0001b0 54 2f 0c be db 3b c1 3d ed 30 a7 bc b0 4c 25 3e
       -0.13689929 0.09435245 -0.020409072 0.16142535
0001c0 55 32 13 3e 5d 22 05 be 35 f3 25 bd af 63 c5 bc
       0.14374669 -0.1300139 -0.040515143 -0.024095384
0001d0 94 f2 06 3e 00 a1 1b 3e 18 02 c5 3e 7e 2b b4 bc
       0.13178474 0.15198135 0.3847816 -0.021993395
0001e0 df b6 ae bb 88 ec cd 3e d6 e1 19 3d ca d9 10 bc
       -0.0053318585 0.40219522 0.03756889 -0.008840987
0001f0 d2 1f 32 3c 3b d2 91 3e 02 09 aa 3d 13 8c 9d 3d
       0.010871844 0.28480706 0.08302499 0.07692733
000200 3d b8 3f bf 3c bd 71 3e 80 90 2c 3b 11 7b 6d 3e
       -0.748905 0.23607343 0.0026331246 0.23191477
000210 92 53 98 be 28 64 06 be 80 6a cb 3d 94 1e 4d bf
       -0.2975126 -0.13124144 0.09932423 -0.80124784
000220 ce 41 95 3e 99 b6 a4 3e 50 37 59 3d aa c5 a4 3c
       0.29151767 0.3217056 0.053031266 0.020113785
000230 12 ab 52 bf db 4b 4c 3e b5 d4 83 bc 98 60 ba be
       -0.8229228 0.19950812 -0.016092638 -0.3640182
000240 8c f3 4c bd 09 56 42 be 72 68 84 3d 86 fa 28 3e
       -0.050036952 -0.18978132 0.06465234 0.16501817
000250 b2 b7 38 bf ee 8f 99 bd 70 f7 10 bd a6 dd c4 bd
       -0.72155297 -0.074981555 -0.035392225 -0.096125886
000260 6c 2c 88 3e be 1c 83 3d 33 c5 ff bd 60 c8 04 3d
       0.2659639 0.064019665 -0.12488785 0.032417655
000270 e0 8a f7 3b 0f 93 20 3e ce 43 09 be 6b 3d 54 3e
       0.007554397 0.15681098 -0.13404772 0.20726554
000280 5e 43 c5 3e fb 9f 33 3e ee 8a 9e 3e 96 0e c1 3c
       0.3852796 0.17541496 0.3096537 0.023566525
000290 fe a4 63 3e 10 d0 2d be 17 30 17 3e 9c b7 29 be
       0.22230908 -0.16973901 0.14764439 -0.16573948
0002a0 65 ed b7 be 37 ee 9c bc 9f ea 34 be 58 ed ff bc
       -0.35923305 -0.019156558 -0.17667626 -0.031241104
0002b0 e8 9a 74 bd f3 ad af be 5f 72 86 be 58 a0 12 bf
       -0.059718043 -0.343124 -0.26259133 -0.57275915
0002c0 db c8 a2 3e 33 62 f0 bd 36 2e 68 3d 66 59 fe be
       0.31793866 -0.1173748 0.056684695 -0.4967758
0002d0 4d 8d 87 3d 53 6c e8 3c 8c 6e 6c 3d ac 63 11 be
       0.06618748 0.028371966 0.057722613 -0.14198178
0002e0 23 7e 16 bd b8 45 f3 3c e0 9b f0 be 97 df 55 3d
       -0.036741387 0.02969633 -0.46993923 0.052215185
0002f0 d9 59 96 be 10 29 9c bd 62 64 c1 bd 9d 51 19 3e
       -0.29365423 -0.076250196 -0.094429746 0.14972539
000300 f9 bd 56 bd 0b e9 84 be d5 b3 ef 3c f0 86 73 3e
       -0.052427266 -0.25959048 0.029260555 0.23781943
000310 28 23 02 3e 43 2a 07 3d 39 ad 2c be fb dd 42 3d
       0.12708724 0.03299929 -0.16862954 0.04757498
000320 4f 89 80 be dc e3 9a 3e 4b 69 38 bc de 64 07 3d
       -0.25104758 0.30251968 -0.011255573 0.03305518
000330 e8 42 13 3d 83 32 11 3e 57 25 13 be 38 61 57 3d
       0.03595248 0.14179425 -0.14369713 0.05258295
000340 d2 65 31 be b2 b4 b5 3e 00 71 e9 be 92 59 c2 3d
       -0.17323998 0.35489422 -0.45594025 0.094897404
000350 f9 1b b9 be 40 6e 37 bb 04 73 f3 3c 81 8e 90 3b
       -0.36154154 -0.0027989298 0.02971793 0.004411519
000360 b9 fd 5f 3d 5a 4d 3c 3e 27 21 85 bd 9a 08 e4 bb
       0.05468533 0.18388882 -0.06500464 -0.006959033
000370 a4 ed ea 3c fb da 4e be 57 2d d1 be f6 31 11 be
       0.028677769 -0.20200722 -0.40854904 -0.14179215
000380 60 8d 1b bd aa d3 4a 3d a4 28 77 3d af 2d 6d bd
       -0.037976623 0.049518265 0.060341492 -0.057904895
000390 6e 16 ae bd a0 11 c8 be 7c ea 0f be 44 59 47 3d
       -0.08500372 -0.39075947 -0.14054292 0.048669115
0003a0 f3 24 5d 3e 05 21 ec be 63 60 04 3e d8 ee 97 bc
       0.21596126 -0.46118942 0.12927394 -0.018546507
0003b0 51 8a ac 3e 8f 51 f7 3b bd 43 11 3d f1 20 89 bd
       0.33699277 0.0075475643 0.03546499 -0.06695736
0003c0 91 f9 cb bc 1e 1d 43 be 16 d3 b5 3d fa 84 fe 3d
       -0.024899276 -0.19054076 0.08878152 0.12427707
0003d0 3e e9 99 bd 49 35 8a 3e 23 f4 ee bc a0 ea 2a be
       -0.075151905 0.26993778 -0.029169148 -0.16691065
0003e0 1f 75 5e 3e 12 75 8e bd fd 29 d9 3c d9 60 96 bd
       0.21724366 -0.06955923 0.02650928 -0.07342691
0003f0 a7 aa 26 bd 01 2a 12 be 07 a9 4f be 8b 99 27 bf
       -0.04069009 -0.14273836 -0.20279323 -0.6546866

arith.constant4 f4 [128, 256]
000000 7d 2c cc bc 27 2c fd 3c d0 13 6b 3d 34 bc f8 3d
       -0.024923557 0.030904843 0.05739194 0.12145272
000010 20 5c f7 3d 19 20 11 3d 7f 84 c2 bd 3d 38 33 bd
       0.12078118 0.035431 -0.09497928 -0.043754805
000020 f9 b1 97 bd 2a 35 e1 bd 93 f1 0f 3e 46 47 bc be
       -0.074069925 -0.10996468 0.14056997 -0.36773127
000030 47 e0 0f bf fe 5e ce 3d 28 16 4a 3c c3 f4 36 be
       -0.56201595 0.10076712 0.012334384 -0.17866807
000040 83 45 d3 3d e4 90 e5 3a f5 10 1c 3b 18 4b 56 bd
       0.10315993 0.0017514494 0.0023813818 -0.05231771
000050 d8 59 14 bf d0 61 57 bd 4e ad b5 ba db 56 84 3d
       -0.5794959 -0.052583516 -0.0013860853 0.06461879
000060 ca cb ba bd 1f 1c 04 bc 64 4d c7 3c cf 0c e8 bd
       -0.09120901 -0.008063345 0.024328895 -0.11330568
000070 23 d2 2c 3e 4a d3 ca 3d c9 13 c8 3c 45 63 7e 3a
       0.16877036 0.099035814 0.024423497 0.00097041234
000080 cc a9 a0 3d de 64 d9 bc 36 b1 ca bb b9 eb 31 be
       0.07844886 -0.026537355 -0.006185676 -0.17375077
000090 3a 9f 12 be ed eb bb 3d c5 94 6a be 69 c2 53 3d
       -0.14318553 0.09175859 -0.22908314 0.051699076
0000a0 b5 e0 21 bd 36 ba ac 3e 6a ad ba 3d 1d c8 b5 3b
       -0.039520938 0.33735818 0.09115107 0.005547537
0000b0 5c c7 4e 3e de 49 89 bc 4a 0b 1f bf e5 cc 3a bf
       0.20193237 -0.016758855 -0.621266 -0.72968894
0000c0 52 b3 5d be 60 d1 91 3d 28 a5 3e be 47 75 73 3d
       -0.21650437 0.07120013 -0.1861769 0.059438016
0000d0 c8 69 6d bd e3 27 e5 3e fd 71 a6 3d 96 50 66 3e
       -0.05796221 0.44756994 0.0812721 0.22491679
0000e0 03 f1 04 3e 9c 21 b0 3d 97 12 b6 bc 18 f5 e1 3d
       0.12982564 0.086001605 -0.022225661 0.11033076
0000f0 7f 9d c2 3a 8b e2 6b 3d 23 09 05 bd 10 2f 3d bd
       0.0014847963 0.057589095 -0.032479417 -0.04618746
000100 07 4b 51 bd 86 52 a4 bc 2b 72 b0 3c 2c b6 c6 bd
       -0.051096942 -0.020058881 0.021538815 -0.09702715
000110 0d d2 37 3c 82 47 a9 bd 08 a8 80 be 53 0e c5 3d
       0.011219514 -0.08265592 -0.25128198 0.09621873
000120 5b 83 e2 3e 99 b3 53 3c 00 7a 45 3d 1e e3 ed 3d
       0.4424084 0.012921237 0.04821205 0.11615585
000130 20 37 1e bd 48 9e 32 bb f3 3c cb 3d c8 a9 f6 bd
       -0.03862679 -0.0027254988 0.099237345 -0.12044102
000140 04 6b 85 3d d8 6e c2 3d 2f 22 28 bd 7a 3d 93 bc
       0.06514552 0.09493798 -0.041048225 -0.01797365
000150 9f 64 f8 3d 9d 0e 0c be ac 83 a3 3d 40 d1 a8 3d
       0.12128567 -0.1367745 0.07984099 0.08243036
000160 c7 86 09 3d 05 38 26 3c 19 90 f2 3d fa 23 db be
       0.0335758 0.010145192 0.11843891 -0.42800885
000170 63 68 72 3d ef 48 ca bc c2 df 95 be 9e f1 88 3d
       0.059181582 -0.02469298 -0.29272276 0.0668671
000180 78 57 40 be 7c c3 81 bd 09 a8 2a 3d bd f0 a0 3c
       -0.18783367 -0.06336114 0.041664157 0.019646043
000190 bd 73 65 3e 55 cf 62 bd 8d 3f 1b 3e 16 5a 8b 3e
       0.22407432 -0.05537351 0.15160961 0.27217168
0001a0 96 e2 c2 3d e9 54 a6 3d 04 1d c5 3d 41 87 84 bd
       0.09515874 0.08121664 0.09624675 -0.0647111
0001b0 f7 df 72 bd 6f 64 78 3c 91 79 d9 bb 11 04 9a bd
       -0.05929562 0.015160664 -0.0066368063 -0.07520307
0001c0 5c a8 73 3c 9f 9c 48 be 9a a2 e6 be 18 18 b9 3c
       0.014871683 -0.19590996 -0.4504593 0.022594497
0001d0 17 fd 25 bd b3 70 27 3e 5f 37 bb 3c f4 65 db 3d
       -0.04052457 0.16351585 0.022853551 0.107128054
0001e0 20 df 05 bd a6 c5 38 bd 9f 1a 90 3c 37 09 7b 3d
       -0.03268349 -0.045110367 0.017590819 0.061288085
0001f0 70 ba 59 3e 93 1a 04 3f 20 45 5d 3c fd 96 fe bc
       0.21262527 0.5160305 0.01350525 -0.031077856
000200 a4 ce ba bc e9 72 af 3d 93 a0 dd 3d 19 52 a7 3d
       -0.022803612 0.08566839 0.10821643 0.08169956
000210 6f 04 04 3d fa 63 1c be 90 19 39 3d 93 4f cf 3d
       0.03223079 -0.15272513 0.045190394 0.101225995
000220 1e 45 09 3e 29 f1 70 bf 9b 4b 9a bd 56 bd c6 3c
       0.13405272 -0.9411798 -0.07533952 0.024260204
000230 1d cc ff bd 4d f1 8f be 1c 76 0d 3d 1d 5c a2 bd
       -0.124901034 -0.28113785 0.034536466 -0.079277255
000240 09 7a 92 bd 0f 0e f2 3d 42 4a 2e bd d5 bc 85 be
       -0.071521826 0.11819088 -0.042551287 -0.2612063
000250 3d cb 0b 3f 9a bb 25 3e ae 45 04 bb 38 56 1c be
       0.5460699 0.16184846 -0.0020183134 -0.15267265
000260 72 e6 dc 3d 3f 2b bf be 36 82 3c 3e d6 63 93 3d
       0.107861415 -0.37337682 0.18409047 0.071967766
000270 ca fe 38 be 01 16 c9 bc e8 63 84 3d 51 55 73 3c
       -0.18065944 -0.024546625 0.06464368 0.014851884
000280 77 52 00 3e 5c 48 a0 be 54 7f 58 bc a4 08 c5 bd
       0.12531458 -0.31305206 -0.013213951 -0.09620789
000290 47 a0 a9 3e a8 37 4e 3d ca 8e b9 be 3c c1 af be
       0.33130094 0.050346047 -0.36241752 -0.34327114
0002a0 4e 19 1f 3c 9f db ea 3d de 85 e0 bd bb ec cb ba
       0.009710623 0.11467671 -0.10963033 -0.0015558222
0002b0 5a c9 f5 3d f0 46 bb 3d 3b 7f d3 bd 99 2d 0a 3d
       0.120012954 0.0914439 -0.10327002 0.03373489
0002c0 ee 92 7f 3d 5a 5b 6f bf af 3a 8c 3d 2d e0 a6 3c
       0.062395982 -0.93498766 0.068471305 0.020370567
0002d0 3e e3 e3 bc df 6c d0 bd 43 e3 be bd b4 0f f9 bd
       -0.027818318 -0.101770155 -0.093206905 -0.12161198
0002e0 d9 09 d2 bc ff 43 2e bc 37 40 5a be 3a a0 54 3d
       -0.025639461 -0.010636329 -0.21313559 0.051910616
0002f0 c4 3c dd 3d 03 7c 04 be 63 90 ab bd bd 56 86 bd
       0.10802606 -0.12937932 -0.08377149 -0.06559513
000300 3d 5c bc 3d 43 75 34 3e a4 64 75 3d 96 7c 94 3d
       0.091972806 0.17622857 0.05991043 0.072503254
000310 99 74 cd bc d8 dc 31 bd e8 b4 68 3d 31 33 bd 3d
       -0.025080012 -0.043423504 0.05681315 0.092382796
000320 90 1c c3 bc 07 2b 09 3e f0 dc 89 3d c0 68 47 bd
       -0.02381733 0.1339532 0.067315936 -0.04868388
000330 64 54 99 bd a6 51 b2 3d 64 1d 97 3d 6d 38 9d be
       -0.07486799 0.087069795 0.07378653 -0.30707112
000340 fa e5 d3 bd 0e 14 8a bd 23 d8 1e bd a0 27 e5 bd
       -0.10346599 -0.067421064 -0.038780343 -0.111891985
000350 86 df 97 bd 61 ed 3e be a3 8c 20 3e 08 68 1d bd
       -0.074156806 -0.1864524 0.15678649 -0.03842929
000360 ec fe a8 bd e7 5f 4f be 74 0c 76 3e 64 dc e0 3c
       -0.082517475 -0.20251428 0.24028188 0.02744884
000370 bf c7 7a 3d c6 3e b7 3d 65 f0 df 3c af 55 45 3d
       0.06122565 0.0894752 0.027336309 0.048177417
000380 d1 6c e7 3c b9 60 09 be 3d 64 21 3f 3e d7 56 3e
       0.02825013 -0.13415803 0.63043576 0.20980546
000390 a1 4c c3 bd 92 74 04 be 60 b5 76 bf 42 70 04 be
       -0.095361 -0.12935093 -0.96370506 -0.12933448
0003a0 eb 5b 15 bd dd 18 f2 bb b6 63 9c bd e6 69 d2 3d
       -0.036464613 -0.007388218 -0.07636206 0.10274105
0003b0 ec 2e ee 3d 71 36 26 bd b9 29 4d bc 29 ab e5 bb
       0.116300434 -0.040579263 -0.0125221545 -0.0070089293
0003c0 93 33 9a bd 21 95 96 bd 33 be 03 3e cf 51 52 3d
       -0.07529368 -0.07352663 0.12865524 0.05134755
0003d0 ba 75 da be 99 a5 1c bc f3 0a cc 3d ed 59 4d be
       -0.42667943 -0.009560966 0.09963026 -0.20053835
0003e0 77 50 ac bc 9a 06 98 bd e8 91 03 be c8 74 11 bf
       -0.021034462 -0.07423134 -0.12848628 -0.5681882
0003f0 79 98 de be 8c 01 bb bd 09 82 50 bd b3 ce a4 be
       -0.43475702 -0.091311544 -0.05090526 -0.3218895

arith.constant5 f4 [5]
000000 3b 0a 65 3c a1 ec f6 3c f3 b6 11 bb f4 90 63 3d
       0.01397949 0.03014213 -0.002223429 0.05555816
000010 db e8 d1 bd
       -0.10249492

arith.constant6 f4 [16]
000000 44 01 3e 3d 78 74 6c bc 3e 16 fe 3d 0c e7 8f 3d
       0.046387926 -0.014432065 0.12406586 0.070264906
000010 b5 bc ac 3b 5b 81 cd 3d f6 5d 24 3e 6f 8f 0e 3d
       0.005271519 0.10034438 0.16051468 0.034804758
000020 69 f4 3b 3d 03 77 7d 3d 5d a1 69 3d db c9 76 3d
       0.045887385 0.061881077 0.057038654 0.060251098
000030 93 1a 50 3d 0a 20 24 bc 6d a8 86 3d fc 56 a5 3c
       0.050806593 -0.010017404 0.065750934 0.020183079

arith.constant7 f4 [32]
000000 48 4a 0a 3d 90 76 ae 3c b2 5b a7 bc 7e 21 f8 bc
       0.033762246 0.02129677 -0.020429466 -0.030289408
000010 cf 08 f8 3b 2d 28 8b bd 3f 43 8d bc aa 39 c4 bd
       0.0075694094 -0.06794772 -0.01724398 -0.09581311
000020 19 3e a0 3c 75 30 88 3d 0a 7e 5a 3d fb c4 76 3d
       0.01956086 0.066498674 0.053342856 0.06024645
000030 d9 a7 9d 3d 01 07 34 3d 6c 98 06 bd 4c 1c 44 bd
       0.0769803 0.043951992 -0.032860205 -0.04787855
000040 4b e3 43 3d 8f aa 89 3c f4 d3 13 3e 82 ec 01 3a
       0.047824185 0.016804961 0.14436322 0.0004956202
000050 73 d0 05 3d ea ad 36 3d 80 a3 29 3d 10 2d 7e 3d
       0.032669496 0.04459945 0.04141569 0.062054694
000060 f2 7e ac 3d 8b bf 65 3d 00 00 00 00 d7 66 1b bd
       0.084226504 0.056090873 0.0 -0.037939873
000070 8c 91 db 3d 39 3e b1 3d 5d bc 81 3d 8f f7 d4 ba
       0.1072112 0.08654446 0.063347556 -0.0016248095

arith.constant8 f4 [64]
000000 a7 3f 87 3d 33 7c cd bd 5d f2 96 bc fe 58 88 bc
       0.066039376 -0.10033455 -0.018426115 -0.016643997
000010 87 eb 1e 3d e6 16 3e 3d aa 5a 0b 3c 92 45 46 3d
       0.038798835 0.046408556 0.008505503 0.04840619
000020 1b 4c 72 3d 01 f5 02 3d 1c ae 7f 3d 91 4c 61 bd
       0.05915461 0.031971935 0.062421903 -0.05500466
000030 10 29 05 bd d8 56 2c bd d1 36 82 3d 04 1d 72 bc
       -0.032509863 -0.04207501 0.06358112 -0.014777426
000040 61 03 0a 3d 33 07 b1 3d ca 0c a9 3c b0 66 05 3d
       0.03369463 0.08643951 0.020635981 0.032568634
000050 7c 6e 63 3d 26 b5 31 3d d8 14 f1 bc 56 bf 13 bc
       0.055525288 0.043385647 -0.029428884 -0.009017786
000060 a6 56 59 bb 61 b7 05 3c e5 b5 c4 bb 56 84 fc bc
       -0.0033163219 0.008161397 -0.006003129 -0.030824821
000070 ee 09 0f bd ef db 9d 3d d6 1c bf bc 01 43 55 bd
       -0.03492158 0.07707965 -0.02332918 -0.052065853
000080 f4 17 63 3c fa ad 1c bc f5 76 59 bc fc 79 70 3d
       0.013860691 -0.009562964 -0.0132729905 0.058710083
000090 2b 61 69 bd f1 7d 51 3d c5 99 40 3d 8e b5 82 3d
       -0.056977432 0.051145498 0.047021646 0.06382285
0000a0 40 e9 3e bd 9a 25 54 3d 9c cf 60 bd 7f 33 99 3c
       -0.046609163 0.051793672 -0.05488549 0.018701313
0000b0 02 17 a3 3c 91 81 8e 3d 6f eb a5 bc a4 92 f9 3c
       0.019908432 0.069583066 -0.020253865 0.030465432
0000c0 c4 23 3c 3d 3c 35 3d bd 91 3c 5b 3d 07 8a 1a bd
       0.045932546 -0.046193346 0.053524558 -0.03772929
0000d0 86 aa 62 3d c9 c2 77 3d 62 cb de bc 64 90 d0 3c
       0.055338405 0.060488496 -0.02719659 0.025459476
0000e0 50 ba 0e 3d 77 0d 4f ba 8a 28 00 3e ff 4a 6a bc
       0.03484565 -0.000789843 0.12515464 -0.014300107
0000f0 9a 48 89 3c 68 0d 66 3d 58 92 87 3d d6 48 67 3b
       0.016758252 0.05616513 0.0661971 0.0035291216

sequential_1/dense_1_2/BiasAdd/ReadVariableOp f4 [128]
000000 11 da af 3c f9 4b b6 3b 7c 1b 1d bd 47 0c b2 bd
       0.021466287 0.005563256 -0.03835629 -0.08693748
000010 3e 13 22 3d a9 3b b9 bc ee 16 5d bc b2 d3 4d 3d
       0.039569132 -0.022611456 -0.013494236 0.050250717
000020 e8 c7 37 3d f3 ea 8c bd c0 25 2a bd bd 99 f0 3c
       0.04486838 -0.068807505 -0.041539907 0.029370183
000030 bd ad 86 3c e2 48 a9 bd ab 57 47 3c b2 c1 4b 3d
       0.016440267 -0.082658544 0.012166898 0.04974527
000040 88 40 13 bd 06 64 20 be c6 b1 69 3c f7 47 2d 3d
       -0.035950214 -0.15663156 0.014263576 0.04230496
000050 da ef a0 3c 05 6d 24 3d 6e ad 0a bd 33 71 10 3d
       0.01964562 0.04014303 -0.0338568 0.035264205
000060 17 79 45 bc 30 ff a8 bc d9 b0 14 3c 4b 1c 41 3d
       -0.012052796 -0.020629495 0.009075367 0.047146123
000070 29 a0 a6 bc 1a 6e 1b bd 33 af 00 bd 98 51 27 3d
       -0.020340042 -0.037946798 -0.031417083 0.0408493
000080 cf 92 ff bc 32 25 4e ba f4 c2 d6 3c ba c8 84 3d
       -0.031197933 -0.0007863819 0.026216008 0.06483598
000090 87 08 a8 bd fb 12 36 bc b9 d1 59 bd 7c 17 fb 3c
       -0.082047515 -0.011112924 -0.053178523 0.030650847
0000a0 d1 49 0e 3c 6c 71 17 3d 41 dc 94 3a 2c dc 7e bc
       0.008684591 0.036973402 0.0011357145 -0.015555423
0000b0 86 8e 3d bd 3f 3f 04 3b a2 35 81 3d 00 23 1a bd
       -0.0462785 0.00201793 0.06309058 -0.037631035
0000c0 66 28 95 3c 71 32 20 bd 70 a5 1f 3d f5 71 86 3c
       0.01820774 -0.039110605 0.038976133 0.01641176
0000d0 38 15 2f bd 10 ea 28 3d 34 70 10 3d a2 2c c4 bc
       -0.042744845 0.041238844 0.035263255 -0.023947064
0000e0 41 4a be 3b eb ca ba bc 25 f3 13 3d 40 a9 96 3d
       0.0058071916 -0.022801837 0.036120553 0.073565006
0000f0 6a 40 ea 3a 3e 34 4d bc 0a c3 b1 3c 74 40 cd 3c
       0.001787198 -0.012524663 0.021699447 0.025055148
000100 e3 96 04 bd b5 eb eb bb 79 8e 5a 3d 33 a9 00 3c
       -0.03237046 -0.0071997293 0.05335853 0.00785284
000110 a0 22 67 3d 02 54 36 3d 74 d8 06 3d 6c 47 71 3c
       0.056429505 0.04451371 0.03292127 0.014726501
000120 0d 9c 99 3c 7a c6 65 3d c3 59 d9 3c 6a 5a 82 bb
       0.018751169 0.056097485 0.02653206 -0.0039780634
000130 8e 6c b1 bc 0f 1d ba bc 91 1e 39 3c b7 86 84 bc
       -0.021658208 -0.022718934 0.0112987915 -0.016177518
000140 53 92 11 3a be 26 a0 bd cf a2 14 bc ea f4 2f bd
       0.0005553115 -0.078198895 -0.00907202 -0.042958178
000150 c7 a5 31 3d 6c 9a ea bc d4 98 57 bd 26 90 4c 3d
       0.04337099 -0.028638087 -0.052635983 0.04994216
000160 e5 b1 83 3a 1b 7f 9d 3c f4 23 2a bd e0 b6 ec 3a
       0.0010047524 0.019225648 -0.041538194 0.0018059872
000170 3b f9 60 3d cf 0f 21 3b 8a 8d 26 3d 51 df f3 bc
       0.054925185 0.0024576073 0.040662326 -0.029769571
000180 fe 51 14 bd 6c 78 13 3c 11 6a 95 3c b7 a7 37 3d
       -0.036211006 0.009000879 0.018239053 0.04483768
000190 6a ed 3e 3d 81 14 37 3d f7 a0 e0 bc e3 c0 16 bd
       0.046613134 0.04469729 -0.027420504 -0.036805045
0001a0 2c 89 64 3b 6f 16 94 3c ca c2 63 3d 9e cc 76 bc
       0.00348718 0.018077103 0.055605687 -0.015063433
0001b0 73 22 83 bc bb 43 61 3d 65 98 e1 3c 69 e5 60 3b
       -0.016007638 0.054996233 0.027538488 0.0034316427
0001c0 50 20 33 bc 9b 38 67 3c 11 00 ab bc d6 3d 19 bd
       -0.010932997 0.014112617 -0.020874055 -0.037412487
0001d0 ac e3 f4 3c 12 44 11 bd 2e 17 5c 3c 64 61 49 3d
       0.029893719 -0.035465308 0.013433261 0.049165145
0001e0 ce 0c da bc 1b eb ba 3d 7f d3 1c 3d 0c 15 76 3d
       -0.026617434 0.09126874 0.038287636 0.060078666
0001f0 01 5b 28 3d 2b 4b 50 3d 14 40 1c bc e9 de 86 3c
       0.041102413 0.050852936 -0.009536762 0.016463714

sequential_1/dense_1/BiasAdd/ReadVariableOp f4 [256]
000000 a7 e2 86 bc 80 35 17 bd 1c 67 e0 3b c7 d7 60 bd
       -0.016465498 -0.036916256 0.006848229 -0.05489328
000010 c8 d3 ae ba 42 20 c4 bc af b6 a1 bc b8 b5 1b bc
       -0.0013338262 -0.023941163 -0.01974043 -0.009503774
000020 5b 21 33 3c 22 ce 2c bc 77 28 e3 3b 8c 99 4d 3c
       0.0109332455 -0.010547193 0.006932314 0.012548815
000030 70 54 d7 3c 8c b4 e7 bc 7c 3e 8d bb d5 b1 05 bb
       0.02628538 -0.028284334 -0.0043104272 -0.0020400186
000040 da 44 6a 3c 23 4a 24 3d 95 bf 4c bd 17 fb c6 bc
       0.014298642 0.040109765 -0.049987394 -0.02428965
000050 4d ef d5 3c e6 e9 23 3c f8 77 21 3d 9e 1d 80 bc
       0.026115084 0.010004496 0.03942105 -0.015639123
000060 c9 fb 80 3c 69 da 83 3c 40 fb 9c bc 61 11 3d 3d
       0.01574506 0.016095357 -0.019162774 0.046159152
000070 70 3d 27 3d 53 e9 34 bc 18 91 9f 3a 14 ba a2 ba
       0.040830076 -0.011041957 0.0012173979 -0.0012415075
000080 42 92 44 3c 34 33 c0 bc f3 dd 56 bc c8 40 8b bd
       0.011997761 -0.023461916 -0.01311444 -0.067994654
000090 7a ca d7 bc dc 8c 02 3d e1 39 b1 3b 85 62 3a bd
       -0.026341666 0.031872615 0.005408511 -0.04550411
0000a0 7f c5 5a bd 90 04 ff b9 81 2d a3 bc f2 f3 74 bc
       -0.053411003 -0.0004864079 -0.019919159 -0.014950739
0000b0 26 54 70 3a 3a 1e e6 3a 67 47 34 bc 2b 30 65 3c
       0.00091678125 0.0017556616 -0.011003352 0.013988535
0000c0 6d 0f 34 bd 76 cd 4e 3b d3 03 4a bd 0e d4 3d 3c
       -0.043960024 0.003155557 -0.049320053 0.011586202
0000d0 72 aa 48 3d 75 35 56 3d 90 af 54 3c fe ef 00 bc
       0.048990674 0.052297074 0.0129813105 -0.007869719
0000e0 99 21 35 bd d1 0e e2 bd d6 8d 85 bc b8 53 ed 3b
       -0.044221494 -0.11037982 -0.016302984 0.007242646
0000f0 47 f8 5e bc be d1 95 bd e1 68 3a bd 00 00 00 00
       -0.013608999 -0.07315396 -0.045510177 0.0
000100 28 7a 0d 3d 11 4b d8 bc f7 ab 7d bd 38 b1 04 3d
       0.034540325 -0.026402982 -0.061931577 0.03239557
000110 92 98 40 3c b1 51 7e bc a9 b3 f8 bc 04 f6 a3 ba
       0.011755126 -0.015522406 -0.030359106 -0.0012509231
000120 b6 31 17 bd 1b 67 08 bd 31 04 b7 3b 71 44 25 bd
       -0.036912642 -0.033301454 0.0055852165 -0.040348474
000130 00 00 00 00 d9 9a f5 bb 0f d4 7b bb e9 3b 15 bd
       0.0 -0.007495266 -0.0038425957 -0.036434088
000140 e4 b2 2f bc fe b8 47 bd cd 7d a7 bd 4f 7a b5 bd
       -0.010723803 -0.048760407 -0.081782915 -0.08861219
000150 f6 8b 0a 3d af e7 e7 bc ea b1 98 bd 00 00 00 00
       0.033824883 -0.028308718 -0.074558094 0.0
000160 83 4b 37 bd c8 bb 21 3c e5 96 23 bd fa f1 68 bd
       -0.044749748 0.009871431 -0.039938826 -0.05687139
000170 3c 9b 23 bd 20 bf 9f bc f8 67 1f bc 7b 09 42 bc
       -0.039942965 -0.019500315 -0.009729378 -0.011843081
000180 c9 d4 41 bc 18 e9 64 bb 5c 9d 50 bd ff 3d 29 bd
       -0.011830517 -0.0034928974 -0.05093132 -0.04131889
000190 98 b6 a0 bc 06 60 34 3d 9a 93 a3 3b 55 58 ac 3a
       -0.019618317 0.044036888 0.0049919607 0.0013148884
0001a0 dd e2 b6 bd a8 36 3c bd 53 a8 f6 3c f9 c1 68 bd
       -0.089299895 -0.04595056 0.03010956 -0.05682561
0001b0 67 5b 94 bc 44 69 f2 bc eb ab 14 3d 2c 2c 8d 3b
       -0.01810999 -0.02959121 0.036296766 0.004308244
0001c0 63 7c 19 bc c8 b1 f4 bd 4d c1 2c bd 85 b4 52 bc
       -0.009368035 -0.119479716 -0.042176533 -0.012860422
0001d0 e8 ab 94 bc ae d4 49 bd f4 13 bc 3a 76 f8 8c bd
       -0.018148378 -0.049275093 0.0014349208 -0.06883328
0001e0 6b df 36 bc 6f 2a 51 bc 8d f7 a5 bd 6a 24 45 3c
       -0.011161665 -0.012766465 -0.08103857 0.012032608
0001f0 33 cd e5 3d a9 0c b2 ba 76 8f 12 3d 8b 9c 82 bc
       0.11220779 -0.0013584095 0.035781346 -0.015943786
000200 7f 51 28 bb 22 e2 9b bd 7d c7 5c bc 59 9e a8 bc
       -0.002568334 -0.07611491 -0.013475296 -0.020583319
000210 f8 69 38 bd b4 86 e9 3a 1c 8a 26 3c 93 19 4b bd
       -0.045022935 0.0017816634 0.010164764 -0.049584936
000220 84 6f 13 3c 35 03 53 bb ce ba 02 3d f8 5e 43 bd
       0.008998755 -0.0032197956 0.031916432 -0.04769799
000230 8d 6a ba 3c 52 b7 dc 3c c4 fc 8a bd 30 2f 1d bd
       0.022755885 0.026942883 -0.067864925 -0.03837508
000240 8d b4 69 bd ac 49 53 bb 64 5d b0 3b e8 f9 bc bb
       -0.057056952 -0.0032239957 0.005382227 -0.005767096
000250 58 4b 4b 3d fa 3c 22 bc 4b fe 32 bd 73 6c 6e 3d
       0.0496324 -0.009902233 -0.043699544 0.058208894
000260 38 1c a8 bc 5f a9 ac 3c 78 ea 82 3c a6 8c 1b 3c
       -0.020521268 0.021076856 0.015980944 0.009493982
000270 8a f4 14 3c 08 80 1d 3c 2d b7 69 bd 98 a7 fe bc
       0.009091506 0.009613045 -0.057059456 -0.031085774
000280 5e 17 3e 3d ac aa 1c 3c cc 96 54 bc 44 66 cc bc
       0.046409003 0.009562176 -0.012975406 -0.024951108
000290 01 91 2b 3d 4f 59 6b bc e4 b1 0b bc e9 5c a6 3a
       0.041886333 -0.014364555 -0.008526299 0.0012692484
0002a0 23 8f f9 3c 1b fe a0 3d f0 5e d7 3b 80 a6 62 bc
       0.03046376 0.07860967 0.0065725967 -0.013833642
0002b0 bd 6c 35 bc 58 39 6f bd 0f 7b 5e bb 10 43 18 bd
       -0.0110732885 -0.058404297 -0.003394786 -0.03717333
0002c0 20 6b 49 bc 54 a5 91 bc 44 f7 3a 3d 2a 7a b8 3a
       -0.012293607 -0.01777903 0.045645967 0.0014074494
0002d0 67 2f 93 bd 27 6e 1c bd 77 14 11 bd ff 58 c8 3c
       -0.07186776 -0.038190987 -0.035419907 0.0244565
0002e0 db b2 8c bd a7 af 75 bd 29 ce 47 bd d8 7b 92 3c
       -0.068700515 -0.05998197 -0.048780594 0.017881319
0002f0 bd 07 03 bd f1 2f 56 3d 72 da 87 bd a3 ec 95 3d
       -0.0319898 0.052291814 -0.06633462 0.073205255
000300 d9 e1 e0 bb dc 7c 69 bc f7 74 de bc 82 e9 2c 3d
       -0.0068628606 -0.01425096 -0.027155383 0.042214878
000310 bd 34 60 3d bd f1 67 3d 7c 5b 63 bb 2e 20 3c bd
       0.054737795 0.056627024 -0.003469198 -0.045929126
000320 00 00 00 00 4b 5d 10 3c 0a b6 7f 3d ef bf 3a bc
       0.0 0.008811305 0.062429465 -0.0113983
000330 3a 6b 33 bd 16 70 a9 3b d9 4f ed 3c fb 0f 58 bd
       -0.04380343 0.0051708324 0.028968738 -0.052749615
000340 82 4d 95 bd cb 90 91 bd 8f 59 f9 bc 9a 16 67 3c
       -0.07290174 -0.07107695 -0.030438213 0.01410451
000350 9c ed 75 bd d5 5c 9e bc 9e 45 9a bd 00 00 00 00
       -0.060041055 -0.019331375 -0.0753281 0.0
000360 44 b5 2c bc 88 fb 6a bd bc 98 36 3c e3 4b 62 bd
       -0.010541264 -0.057368785 0.011144813 -0.055248152
000370 ab fb 5c bd 42 a8 56 bd c2 86 45 bc 6e 85 7d bc
       -0.053950947 -0.052406557 -0.012056055 -0.015473707
000380 7f e0 1d bd ed 0e 5a bc ba de 7f bc eb 45 21 3d
       -0.038544174 -0.013309223 -0.015617067 0.03937332
000390 d5 1e ac bd 31 0f 98 bc 7e 47 b1 3b 8c 58 5f bd
       -0.08404318 -0.018561931 0.005410134 -0.054527804
0003a0 c6 67 d1 38 cd 70 d1 bc b3 65 8f bd 31 f8 49 3d
       9.985226e-05 -0.025566483 -0.070018195 0.04930896
0003b0 fe 8e 21 bc cc 95 97 bd e6 a0 57 bc 88 d0 c2 bb
       -0.009860752 -0.07401618 -0.01316092 -0.005945269
0003c0 be 76 79 bd af 0a 0e bd 30 80 97 3d df 52 ab bc
       -0.060904257 -0.034678157 0.07397497 -0.02091354
0003d0 a0 2f 64 3a 55 33 5d bc 84 72 37 bc 42 6c ab bb
       0.00087046064 -0.013501008 -0.011196736 -0.005231411
0003e0 dc ba f0 bc c6 a2 41 bd 6e f2 d6 3c 4e 76 c1 bc
       -0.029385976 -0.047274373 0.026238646 -0.023615982
0003f0 a1 1b 5d 3d 9c 5b af bd 01 6d b9 3c 6c 92 52 bc
       0.053981427 -0.08562395 0.022634985 -0.0128522925
